Bejin212222230021 (1).pt (torch, 243972 bytes, 10 tensors)

conv1.weight f4 [6, 1, 3, 3]
0.4517486 0.37288913 -0.3510307 0.28748697 -0.055676695 -0.117133684 -0.23543449 0.17419538
0.35335827 -0.38219 0.30997124 0.33172286 0.20186976 0.29085684 0.27060738 0.14637683
0.4043421 -0.08913332 0.23936805 0.16029546 -0.60016805 -0.032241333 -1.0844706 0.024072258
-0.71168756 0.07671185 0.30322245 -0.112938955 -0.3659577 -0.71109456 0.3414484 -0.317565
0.2451978 0.28266776 0.28114164 0.4530336 -0.16056113 0.21076244 -0.10857762 -0.26127204
0.18499462 -0.313235 -0.011659409 0.24753292 -0.111325406 0.22653311 0.51484233 0.41965178
0.22457191 -0.060938925 -0.19855437 -0.5686161 -0.6526962 -0.01640374
00000000: 984b e73e 53eb be3e 4cba b3be 7e31 933e
00000010: 3f0d 64bd c9e3 efbd bd15 71be 4660 323e
00000020: 60eb b43e 68ae c3be 8db4 9e3e 94d7 a93e
00000030: f2b6 4e3e 30eb 943e 0d8d 8a3e cfe3 153e
00000040: ed05 cf3e 888b b6bd e61c 753e 7e24 243e
00000050: 9da4 19bf 7d0f 04bd efcf 8abf 2f33 c53c
00000060: 2831 36bf 1a1b 9d3d f93f 9b3e 8a4c e7bd
00000070: cf5e bbbe 4b0a 36bf 53d2 ae3e e197 a2be
00000080: 2215 7b3e d4b9 903e ccf1 8f3e 05f4 e73e
00000090: 236a 24be 1cd2 573e f15d debd 73c5 85be
000000a0: 3b6f 3d3e 5760 a0be 1b07 3fbc 4579 7d3e
000000b0: 93fe e3bd 4cf8 673e b5cc 033f 99dc d63e
000000c0: 2ef6 653e 189b 79bd d651 4bbe d390 11bf
000000d0: 1917 27bf 2361 86bc

conv1.bias f4 [6]
-0.021338234 -0.15267655 0.19096161 -0.021357168 -0.12949036 -0.02044057
00000000: 85cd aebc 3e57 1cbe 718b 433e 3af5 aebc
00000010: 1f99 04be fb72 a7bc

conv2.weight f4 [16, 6, 3, 3]
0.100942045 0.021044668 0.15337758 0.13580206 0.05448489 -0.134096 0.16143632 -0.109993495
-0.33746395 0.18482044 0.29643396 -0.013231627 0.32126018 -0.12026157 -0.40686566 -0.10197636
-0.25198257 0.009688699 -0.14035968 0.03297068 -0.18503162 -0.29564375 0.06994701 -0.010813363
0.11738869 0.0007443993 0.013757299 -0.056626655 -0.22448355 -0.041458994 -0.05427224 -0.21412167
0.1158226 0.029305665 -0.3222626 -0.29555175 0.39955986 0.095313 -0.15682878 -0.05161913
-0.0352038 -0.26388425 0.008496663 -0.13927518 -0.08247532 -0.5921561 0.17423223 0.14640716
-0.32443637 -0.22500327 -0.033435363 0.088042155 0.22847427 -0.2067803 -0.45959747 -0.07909071
-0.11464928 -0.6466732 -0.13259526 -0.06285686 0.025730677 0.052206077 0.04897191 -0.48602572
-0.08600465 -0.39998525 -0.40984073 -0.21365231 0.07122658 0.07592019 0.31612095 0.17423148
-0.21187891 -0.042563487 -0.10942579 -0.027944302 -0.024217356 -0.10804122 0.21201159 -0.0067625786
-0.1329759 -0.6632604 -0.12194094 -0.38044587 -0.23171896 0.1215709 0.3316221 0.41051856
0.36898738 0.009864487 -0.42768708 -0.2836728 -0.2977632 -0.46769193 -0.33393136 -0.2285896
0.034214824 0.04273144 -0.032296833 -0.04780159 0.32136825 0.4753555 -0.41366905 0.25997058
-0.116668716 -0.12180433 -0.1277656 0.38101763 0.001147715 -0.113993764 -0.109173924 -0.051319823
0.032018475 -0.08982833 -0.11535384 -0.12633824 -0.1791673 0.015012894 0.07162115 -0.1835511
0.009130403 0.016434798 -0.003528346 -0.13774048 -0.014771983 0.011685086 -0.008778063 -0.060607955
-0.073508225 -0.01882081 -0.025844846 -0.08189757 0.059647314 0.09097313 -0.06015911 -0.043918494
-0.0074532535 -0.048384167 -0.02940135 -0.0059754723 -0.17400059 -0.14091577 0.04971619 -0.029584168
-0.03802341 -0.121817745 -0.11511011 -0.13817717 -0.10363377 0.038410276 0.033798236 -0.0022189876
-0.15021202 -0.11682542 -0.054941416 0.08653901 0.022899382 -0.047118887 0.040235147 -0.092459045
-0.094094746 0.0828164 -0.03820003 -0.028683968 -0.06799825 0.20597479 0.21992585 0.09222744
-0.33995375 -0.3444347 -0.20906112 0.097601995 0.10292486 0.2232889 0.015419039 0.12931594
0.0355458 -0.39273772 -0.3978139 -0.4752996 -0.16836102 0.015183091 0.06618171 -0.37975854
-0.13392642 -0.058568347 -0.3286964 0.1389269 0.2846938 0.2793229 -0.007856048 -0.015943123
-0.041905854 0.061158337 -0.27838343 0.14024967 0.09626641 0.067522645 0.20739861 0.084555484
0.3114567 -0.23203923 -0.028885076 0.012665672 -0.15289317 -0.12573661 -0.070732996 -0.22922994
-0.16584875 -0.52293104 0.1696392 0.007840898 0.42336553 0.032507002 0.31392705 -0.1687209
0.0065608164 0.19536245 0.17408255 -0.2850297 0.08585273 0.02543051 -0.27036822 -0.52981114
-0.52224535 0.0023903614 -0.002780691 0.24118958 -0.031139955 0.026627617 0.021967344 -0.28704363
-0.46489963 -0.76236814 -0.16469339 -0.16016729 -0.059042715 -0.040210906 -0.04543522 -0.08229171
0.03710469 0.06851287 0.13647498 0.04146465 0.12682508 0.37864384 -0.48522076 -0.1730667
-0.25018394 0.2228498 0.29807803 -0.043072443 0.0035332786 0.012376131 0.12926693 -0.14450592
00000000: b4ba ce3d de65 ac3c 030f 1d3e b20f 0b3e
00000010: 8c2b 5f3d 7650 09be 904f 253e 4544 e1bd
00000020: 13c8 acbe 9241 3d3e 31c6 973e 77c9 58bc
00000030: 377c a43e b34b f6bd b250 d0be fbd8 d0bd
00000040: dc03 81be 59bd 1e3c 73ba 0fbe 440c 073d
00000050: ee78 3dbe 9e5e 97be 6140 8f3d 882a 31bc
00000060: 7b69 f03d cb23 433a 4b66 613c 5af1 67bd
00000070: 04df 65be e8d0 29bd 914c 5ebd b642 5bbe
00000080: 6634 ed3d 6f12 f03c 9aff a4be 8f52 97be
00000090: 1c93 cc3e 7633 c33d b997 20be 956e 53bd
000000a0: dc31 10bd d61b 87be 9635 0b3c 279e 0ebe
000000b0: d2e8 a8bd 8b97 17bf ef69 323e c2eb 153e
000000c0: 861c a6be 4267 66be 85f3 08bd 724f b43d
000000d0: 29f5 693e 37be 53be 5c50 ebbe 4ffa a1bd
000000e0: 3ecd eabd 608c 25bf 0dc7 07be 19bb 80bd
000000f0: 24c9 d23c 0ad6 553d c596 483d 5dd8 f8be
00000100: 3523 b0bd deca ccbe a5d6 d1be acc7 5abe
00000110: 3edf 913d 0b7c 9b3d 9bda a13e bd69 323e
00000120: c9f6 58be 0d57 2ebd a11a e0bd 73eb e4bc
00000130: 7a63 c6bc b744 ddbd 9119 593e 9f98 ddbb
00000140: d62a 08be 6fcb 29bf 2cbc f9bd cdc9 c2be
00000150: bc47 6dbe 2afa f83d 5fca a93e 7d2f d23e
00000160: eaeb bc3e a89e 213c cdf9 dabe 903d 91be
00000170: 6b74 98be 5175 efbe 0df9 aabe 6413 6abe
00000180: d824 0c3d 2a07 2f3d af49 04bd 9acb 43bd
00000190: 618a a43e cc61 f33e 6ecc d3be dd1a 853e
000001a0: 02f0 eebd 8c74 f9bd fcd4 02be be14 c33e
000001b0: ed6e 963a 9075 e9bd 9496 dfbd bc34 52bd
000001c0: ce25 033d eaf7 b7bd a23e ecbd d05e 01be
000001d0: a277 37be a4f8 753c 1cae 923d d2f4 3bbe
000001e0: b097 153c 45a2 863c d33b 67bb d70b 0dbe
000001f0: 3006 72bc ce72 3f3c ddd1 0fbc 0c40 78bd
00000200: 7b8b 96bd 192e 9abc 92b8 d3bc eab9 a7bd
00000210: be50 743d 1f50 ba3d 6669 76bd e1e3 33bd
00000220: 6c3a f4bb 7a2e 46bd 1adb f0bc e5cd c3bb
00000230: 362d 32be 394c 10be 34a3 4b3d 7f5a f2bc
00000240: 6fbe 1bbd 957b f9bd d9be ebbd 517e 0dbe
00000250: f13d d4bd 1854 1d3d 0570 0a3d 6f6c 11bb
00000260: 2ed1 19be 2a42 efbd 400a 61bd 5d3b b13d
00000270: 7c97 bb3c bcff 40bd 9ccd 243d 2b5b bdbd
00000280: bfb4 c0bd a59b a93d a277 1cbd a4fa eabc
00000290: ab42 8bbd 0eeb 523e 3e34 613e bde1 bc3d
000002a0: 6b0e aebe bf59 b0be 1e14 56be 8ee3 c73d
000002b0: 45ca d23d d8a5 643e 23a0 7c3c 666b 043e
000002c0: 7998 113d eb14 c9be 43ae cbbe 785a f3be
000002d0: d566 2cbe 80c2 783c 478a 873d b66f c2be
000002e0: 0224 09be 5de5 6fbd e54a a8be da42 0e3e
000002f0: 63c3 913e 6903 8f3e a7b6 00bc 279b 82bc
00000300: 79a5 2bbd 2a81 7a3d 4688 8ebe 9c9d 0f3e
00000310: 5327 c53d 5049 8a3d 4d60 543e 6d2b ad3d
00000320: 4177 9f3e b19b 6dbe 65a0 ecbc ae83 4f3c
00000330: 0790 1cbe 19c1 00be 76dc 90bd 41bb 6abe
00000340: 41d4 29be cfde 05bf e6b5 2d3e 1c77 003c
00000350: 5ec3 d83e 1026 053d 0cbb a03e 2cc5 2cbe
00000360: 1efc d63b 180d 483e b242 323e 6aef 91be
00000370: 8ed3 af3d a553 d03c b46d 8abe b4a1 07bf
00000380: dfb1 05bf 9ca7 1c3b 413c 36bb 67fa 763e
00000390: 3819 ffbc 2922 da3c dcf4 b33c 62f7 92be
000003a0: 5307 eebe 8f2a 43bf 62a5 28be e502 24be
000003b0: c6d6 71bd 31b4 24bd 481a 3abd 8e88 a8bd
000003c0: 16fb 173d 7a50 8c3d 19c0 0b3e d6d6 293d
000003d0: 6fde 013e 9bdd c13e db6e f8be 6638 31be
000003e0: 1c18 80be bd32 643e af9d 983e bb6c 30bd
000003f0: 948e 673b 41c5 4a3c 8d5e 043e 5cf9 13be

conv2.bias f4 [16]
0.005564977 -0.19750527 -0.083592504 -0.0049770814 -0.024700051 -0.09462244 0.13811786 -0.14818193
-0.17214414 -0.21098414 -0.05554266 -0.2762627 -0.22990942 -0.0069061248 0.052132722 -0.0397805
00000000: 695a b63b d23e 4abe 8c32 abbd c916 a3bb
00000010: c357 cabc 69c9 c1bd c56e 0d3e 01bd 17be
00000020: 8e46 30be 3a0c 58be b380 63bd 4e72 8dbe
00000030: 606d 6bbe c64c e2bb 1f89 553d e1f0 22bd

fc1.weight f4 [120, 400]
-0.07226719 0.08614318 0.39745623 0.43277496 0.43859333 -0.06920777 0.08260697 -0.38048607
-0.027838426 0.35620952 -0.042395275 -0.32104355 -0.17714012 0.04616333 -0.16990116 -0.0635949
-0.26028442 -0.113697074 -0.26592642 -0.17115021 -0.052461613 -0.23156938 -0.1886709 0.20308161
0.15265553 -0.05606266 -0.06261099 -0.15752302 0.010628789 0.19319968 -0.26325443 -0.11900154
-0.05994852 0.2230891 0.12447961 -0.08603833 -0.10804667 -0.10030206 -0.11480388 0.054016102
0.27183032 0.2444099 0.020578768 -0.0484036 -0.01331765 -0.14651698 0.26081717 0.19253758
-0.0084020635 -0.04479494 -0.0148651 0.01786011 0.005907961 0.018376822 0.060738314 -0.038006574
0.04338951 0.031221377 0.029417006 0.025232092 0.0011354741 -0.0039088614 -0.0044353493 0.019292582
-0.03453667 -0.0259207 -0.0041294657 -0.017834293 -0.009332596 -0.027082693 0.024071023 -0.0012712599
-0.052283272 0.034312543 -0.011561471 0.016767815 0.090235434 0.18978012 0.1252498 0.43392253
-0.016393047 -0.014418895 -0.06118606 0.0657878 0.35913512 0.0904282 -0.039610095 0.026555832
0.1250156 -0.13995622 -0.06632091 -0.0730505 0.1254997 0.05531388 -0.28977865 0.15408307
0.19092177 0.11450199 0.15892921 -0.045301404 -0.038750947 0.019595625 -0.06254567 0.14352629
0.37649786 0.10877477 -0.025604231 -0.2919215 -0.10695413 0.44832975 0.14045863 -0.13254401
-0.10626599 0.07086359 0.2786558 -0.12991896 0.04287799 -0.039362468 -0.32255623 -0.45824912
0.12322997 0.16902538 0.1178859 0.17239736 -0.1393827 -0.13108747 -0.08778874 0.16925663
0.29461235 0.3929585 0.02598132 0.036794234 -0.024468776 0.34791148 0.65086 0.079530045
-0.04988714 -0.015026948 0.034275316 0.15953086 -0.04036714 -0.15591532 0.0012345085 -0.46055037
-0.57460284 0.15638205 0.23360437 -0.04238045 0.1632821 0.17512819 0.12267477 0.2091123
-0.003506466 0.13467087 0.21532176 0.076819435 0.1398275 -0.08619182 -0.2555552 -0.05842506
-0.019281056 0.24346209 -0.13953121 -0.013497516 0.08870106 0.024118163 -0.06605163 0.011756407
-0.19017023 -0.34061837 -0.005929241 -0.015202177 -0.04685732 -0.09783107 -0.33140522 -0.030147089
0.2830135 0.23202619 -0.09503067 0.013214168 0.028837899 0.0122568 0.21109346 -0.06980771
-0.1857606 0.14503044 -0.035028566 0.012032931 0.09681664 0.06759529 0.010341489 -0.22464171
-0.122427285 -0.15317379 0.13594957 -0.1074722 -0.08417293 -0.037367463 -0.19564225 -0.13414259
0.021061094 0.07481466 -0.045223292 0.11547469 0.11168499 0.071225725 0.14941598 -0.028215736
0.018081453 0.17624483 0.12195761 0.06232369 0.031184731 0.0517716 -0.13342358 -0.001124062
-0.08730443 -0.09436171 -0.09910589 -0.27607477 -0.041711338 0.09607877 0.114260666 0.032457985
-0.19150811 0.5666635 0.22297622 0.13429682 0.02761441 0.26722157 -0.20422946 -0.27421713
-0.058564622 -0.041973755 0.104297206 -0.36301994 -0.05714008 0.17141217 -0.06620628 -0.35032156
-0.14991206 -0.120375134 0.0897602 -0.004015417 0.012702545 -0.009270873 0.041613076 0.24276622
0.22838992 0.24102372 -0.06455599 0.04017277 0.061803173 -0.11684066 -0.04125656 -0.11329058
00000000: d200 94bd d66b b03d 627f cb3e ae94 dd3e
00000010: 4e8f e03e cebc 8dbd d82d a93d 12cf c2be
00000020: 690d e4bc 1861 b63e aba6 2dbd d25f a4be
00000030: 3864 35be c315 3d3d 92fa 2dbe 0b3e 82bd
00000040: 0044 85be 03da e8bd 8227 88be 0042 2fbe
00000050: fde1 56bd 8620 6dbe f232 41be a0f4 4f3e
00000060: bb51 1c3e f6a1 65bd 313a 80bd b74d 21be
00000070: 5f24 2e3c 23d6 453e 49c9 86be 14b7 f3bd
00000080: 948c 75bd 7871 643e 2aef fe3d dd34 b0bd
00000090: 9347 ddbd 2b6b cdbd 4c1e ebbd fd3f 5d3d
000000a0: 582d 8b3e 9746 7a3e ce94 a83c da42 46bd
000000b0: 4632 5abc 8c08 16be d489 853e 9228 453e
000000c0: cfa8 09bc e67a 37bd c08c 73bc 5e4f 923c
000000d0: 9297 c13b fd8a 963c bdc8 783d c8ac 1bbd
000000e0: 33b9 313d f9c3 ff3c effb f03c 88b3 ce3c
000000f0: 30d4 943a e815 80bb 6856 91bb 7a0b 9e3c
00000100: 5376 0dbd a657 d4bc 7850 87bb 3919 92bc
00000110: bfe7 18bc 86dc ddbc 9830 c53c 67a0 a6ba
00000120: fc26 56bd 4f8b 0c3d 536c 3dbc a85c 893c
00000130: 5bcd b83d b855 423e 7c41 003e 182b de3e
00000140: b64a 86bc 3b3d 6cbc 3c9e 7abd c1bb 863d
00000150: 8fe0 b73e 6c32 b93d 323e 22bd 9e8b d93c
00000160: 1704 003e af50 0fbe 42d3 87bd 809b 95bd
00000170: fe82 003e cf90 623d de5d 94be f4c7 1d3e
00000180: ff80 433e 0580 ea3d 57be 223e f78d 39bd
00000190: 50b9 1ebd 0187 a03c f217 80bd 8ef8 123e
000001a0: 54c4 c03e 4ec5 de3d f7bf d1bc bc76 95be
000001b0: c40a dbbd 7a8b e53e 63d4 0f3e 9eb9 07be
000001c0: fca1 d9bd ee20 913d f9ab 8e3e 7a09 05be
000001d0: d5a0 2f3d 8a3a 21bd 1726 a5be a19f eabe
000001e0: ff5f fc3d fd14 2d3e 2a6e f13d ef88 303e
000001f0: 57ba 0ebe cb3b 06be 95ca b3bd 9c51 2d3e
00000200: 6ed7 963e db31 c93e c7d6 d43c 8db5 163d
00000210: be72 c8bc 7421 b23e c39e 263f a6e0 a23d
00000220: 7556 4cbd 9733 76bc 4664 0c3d 0f5c 233e
00000230: 0458 25bd 44a8 1fbe 3bcf a13a 42cd ebbe
00000240: 2c19 13bf 9e22 203e fc35 6f3e 1f97 2dbd
00000250: 6c33 273e ce54 333e e93c fb3d 8921 563e
00000260: bdcc 65bb 29e7 093e 4f7d 5c3e 8253 9d3d
00000270: f12e 0f3e 5685 b0bd 22d8 82be 1e4f 6fbd
00000280: 4ef3 9dbc 204e 793e 45e1 0ebe af24 5dbc
00000290: e7a8 b53d 7493 c53c 1446 87bd f29d 403c
000002a0: fcbb 42be 8865 aebe 144a c2bb 8d12 79bc
000002b0: 76ed 3fbd a85b c8bd f2ad a9be 07f7 f6bc
000002c0: 25e7 903e 4698 6d3e 719f c2bd 3d80 583c
000002d0: 753d ec3c bfd0 483c e228 583e 58f7 8ebd
000002e0: 0738 3ebe dc82 143e 1d7a 0fbd c525 453c
000002f0: cd47 c63d 666f 8a3d 596f 293c 7a08 66be
00000300: 28bb fabd 97d9 1cbe 5d36 0b3e 631a dcbd
00000310: db62 acbd a00e 19bd 7156 48be ad5c 09be
00000320: 5188 ac3c 6e38 993d 0f3c 39bd ff7d ec3d
00000330: 1abb e43d cbde 913d 8100 193e b024 e7bc
00000340: 8e1f 943c 8679 343e e9c4 f93d 2047 7f3d
00000350: 1f77 ff3c 750e 543d 31a0 08be 4355 93ba
00000360: aacc b2bd b640 c1bd 07f8 cabd ac59 8dbe
00000370: 82d9 2abd f2c4 c43d 7f01 ea3d aaf2 043d
00000380: b41a 44be dc10 113f e153 643e 1b85 093e
00000390: 9d37 e23c 44d1 883e 8721 51be 3066 8cbe
000003a0: 75e1 6fbd acec 2bbd c699 d53d c0dd b9be
000003b0: b70b 6abd ac86 2f3e 2897 87bd 595d b3be
000003c0: 8c82 19be 3d87 f6bd 32d4 b73d c293 83bb
000003d0: 561e 503c dce4 17bc 7972 2a3d b597 783e
000003e0: 0cdf 693e ecce 763e ee35 84bd 348c 243d
000003f0: 5325 7d3d 284a efbd a3fc 28bd e404 e8bd

fc1.bias f4 [120]
-0.023725588 -0.1033899 -0.113323934 0.063865736 -0.081936516 0.0154473325 0.16292751 -0.1375653
-0.019034078 0.15915857 0.0058538504 -0.065954715 -0.037606042 0.0030185345 0.12835726 0.041321523
-0.0532003 0.07911175 0.021200903 0.024071686 -0.10343658 -0.080763355 -0.065537006 -0.18957245
-0.119048454 0.022804158 -0.067634895 -0.042661864 -0.0028414258 -0.11833874 0.06754259 -0.2453784
0.045727324 -0.03916855 -0.05860165 -0.07242364 0.00237152 -0.07565536 0.025151337 -0.025687978
0.0123625705 -0.017115667 0.16619733 -0.12870215 -0.03992365 -0.06077526 0.051434543 0.1460849
-0.0634472 0.027619667 -0.06803645 0.020082522 0.04360727 -0.06083093 -0.080175854 -0.08417163
-0.001022402 -0.04465506 -0.18085003 -0.14633614 -0.06315083 -0.08587448 0.06993177 0.23824207
0.080408275 -0.06487211 -0.11185445 0.062766306 0.011320734 -0.09461473 -0.07574773 -0.10722083
0.012292339 0.010939878 -0.0837743 0.06893114 -0.02770797 -0.13839798 -0.02244281 0.060921475
0.008649469 -0.03262461 0.024945024 0.0023732383 -0.03353647 0.006451969 -0.06076499 -0.012556233
0.05408666 0.24483784 -0.06610028 -0.0337731 -0.047269873 -0.07346975 0.0845995 -0.14802827
-0.079542786 0.074700765 -0.12808287 -0.032792952 -0.1140525 -0.090230234 0.010883819 -0.066622354
0.16072601 0.006861828 -0.041071415 -0.20727372 -0.14073685 -0.061371114 0.18158992 -0.04576684
-0.14140321 -0.15471584 0.047846552 -0.045689818 0.053331837 -0.023828017 0.06309424 -0.05998157
00000000: 2a5c c2bc 15be d3bd 6116 e8bd 0acc 823d
00000010: 55ce a7bd cf16 7d3c 78d6 263e ebdd 0cbe
00000020: 5bed 9bbc 77fa 223e a8d1 bf3b 4413 87bd
00000030: cb08 1abd 9bd2 453b 1670 033e c240 293d
00000040: 8fe8 59bd 5705 a23d 84ad ad3c fc31 c53c
00000050: 8fd6 d3bd 4267 a5bd 4438 86bd 481f 42be
00000060: adcf f3bd c9cf ba3c 2a84 8abd 35be 2ebd
00000070: 3737 3abb 955b f2bd c553 8a3d 7a44 7bbe
00000080: 934c 3b3d 346f 20bd 4908 70bd d852 94bd
00000090: 816b 1b3b 33f1 9abd 2d0a ce3c 986f d2bc
000000a0: 618c 4a3c 2836 8cbc a22f 2a3e 7fca 03be
000000b0: fb86 23bd 7bef 78bd 07ad 523d 4897 153e
000000c0: 9bf0 81bd a442 e23c b256 8bbd 1a84 a43c
000000d0: 899d 323d da29 79bd 3d33 a4bd 2d62 acbd
000000e0: 1e02 86ba 39e8 36bd c030 39be 24d9 15be
000000f0: 3955 81bd f6de afbd 6338 8f3d bbf5 733e
00000100: 18ad a43d abdb 84bd f213 e5bd 9f8b 803d
00000110: 9a7a 393c 5ec5 c1bd a021 9bbd 9896 dbbd
00000120: ce65 493c 2d3d 333c dc91 abbd c52b 8d3d
00000130: d3fb e2bc 33b8 0dbe fcd9 b7bc cc88 793d
00000140: 81b6 0d3c 62a1 05bd 8259 cc3c 5588 1b3b
00000150: 8a5d 09bd 0a6b d33b b6e4 78bd a9b8 4dbc
00000160: f989 5d3d c5b6 7a3e 955f 87bd a955 0abd
00000170: 0e9e 41bd 4f77 96bd 8142 ad3d b994 17be
00000180: 54e7 a2bd b7fc 983d 2828 03be e751 06bd
00000190: 5b94 e9bd a1ca b8bd 0c52 323c 4d71 88bd
000001a0: 5c95 243e 2fd9 e03b 803a 28bd 903f 54be
000001b0: 521d 10be 4760 7bbd b5f2 393e 0376 3bbd
000001c0: 01cc 10be d46d 1ebe bffa 433d 3f25 3bbd
000001d0: 7c72 5a3d f932 c3bc 8e37 813d 3caf 75bd

fc2.weight f4 [84, 120]
-0.14477506 -0.00640279 0.13945527 0.41411522 -0.045303144 0.10567668 -0.027819917 -0.045708016
-0.04778555 0.06573646 0.09973788 -0.19624443 0.042376015 -0.20528208 -0.13950957 0.12838767
0.093742706 -0.30488804 -0.23680903 -0.07378409 -0.107367925 0.08108921 -0.010898971 0.17486128
0.13819039 -0.037281916 -0.08941496 -0.04402165 -0.13936922 0.11945324 -0.074905954 0.008970735
0.09064715 -0.0009506094 -0.038314648 0.15858172 -0.18364424 0.09417099 -0.3141785 -0.05722167
0.08211558 -0.012924249 -0.14711072 0.24499443 0.008208274 -0.03860662 -0.06630856 -0.0070269234
0.017864674 -0.20874393 0.14542526 -0.010197571 0.024423024 -0.21800852 0.08409075 -0.15431856
-0.15925203 -0.08368548 0.20034648 0.058549486 -0.041443318 -0.17992836 0.09555979 0.30493972
-0.17213693 0.12711008 0.17653365 -0.021797491 -0.014746669 0.047433134 0.08926813 0.1068737
-0.04179014 -0.19723016 -0.05508833 -0.03293105 0.013440111 0.20648423 -0.056337733 -0.06577373
-0.08251752 0.1986538 0.07815163 0.06747183 0.06389824 0.013433432 0.067117736 0.10146426
0.061760902 -0.06138072 -0.0570314 -0.33201867 0.015503302 -0.087305956 0.16958712 -0.015449602
0.15723674 -0.028168492 -0.14237034 0.1392247 -0.2774041 0.2694585 -0.041138798 -0.029301913
0.07186759 0.11546247 0.047301006 0.011198831 -0.078466356 -0.04072678 0.07212807 -8.662656e-05
0.050693423 -0.022842903 0.09357071 0.049143862 0.3786806 0.24028432 0.088082306 0.10203966
0.0264369 -0.087567635 -0.18387128 -0.07466591 -0.07384635 -0.0109006595 -0.0679192 -0.10662629
0.02416507 0.021433812 0.037110087 -0.092126586 -0.0028090402 -0.07597041 -0.02350468 -0.0673205
0.017523577 0.07510749 0.046989184 0.05676159 0.07776546 0.0293971 0.09479001 0.0035729634
0.056014307 -0.081936926 0.058248084 -0.018228699 -0.1394864 0.045621026 -0.09137144 0.023658136
0.023900691 -0.0421498 0.07081346 0.004991217 -0.09831505 -0.08106058 -0.07942051 -0.050139472
-0.04450591 -0.06434012 -0.15052241 0.09341879 -0.07788239 -0.084308274 -0.019155309 0.04229395
0.045508135 -0.102903225 0.048282087 -0.08800125 -0.048776306 -0.09604452 0.02743154 -0.017286895
0.042889494 0.025072364 -0.10560682 -0.04115414 0.020682223 0.05020099 0.03504053 0.044672973
-0.11453268 -0.08428105 0.09571756 -0.05905575 -0.016043756 0.020523177 0.005884754 -0.0027364823
-0.0043393695 -0.046581313 -0.080521725 -0.09495386 0.09273262 -0.11788223 0.01973682 -0.08957057
0.021631682 0.035723526 -0.052116815 0.003458372 -0.012118455 -0.07667563 0.0553358 -0.1661919
-0.013340647 0.028589524 -0.009351502 0.00062051055 -0.07199353 -0.037080575 -0.0033923758 -0.1175876
-0.0744042 -0.2107281 -0.08989296 -0.19709662 -0.01674998 -0.032162555 -0.05011679 -0.15782845
-0.06630749 -0.14788814 -0.0391335 -0.07688477 -0.057496108 -0.035152107 -0.10129576 0.07209634
-0.013693197 0.059328143 -0.06937007 0.031019974 -0.014469084 -0.069928996 0.018951429 -0.05087853
-0.0053892774 -0.1228745 -0.19131947 0.26872754 -0.07352643 0.06576717 0.14975208 -0.12203773
-0.029990112 0.19555867 -0.08307225 -0.38753945 0.003619004 0.00078244985 0.2244396 -0.079824395
00000000: ea3f 14be 7fce d1bb 5dcd 0e3e e906 d43e
00000010: ca8f 39bd 046d d83d 98e6 e3bc 5438 3bbd
00000020: c8ba 43bd d6a0 863d 6043 cc3d 4df4 48be
00000030: 7992 2d3d 7735 52be 99db 0ebe 0f78 033e
00000040: 2dfc bf3d 491a 9cbe 117e 72be 1d1c 97bd
00000050: b7e3 dbbd 1a12 a63d 9991 32bc d60e 333e
00000060: c881 0d3e ecb4 18bd 311f b7bd 0c50 34bd
00000070: ceb6 0ebe e6a3 f43d 4b68 99bd fdf9 123c
00000080: 37a5 b93d 5132 79ba d2ef 1cbd 3f63 223e
00000090: 3c0d 3cbe b8dc c03d 01dc a0be 4561 6abd
000000a0: 372c a83d 3bc0 53bc 31a4 16be d2df 7a3e
000000b0: ff7b 063c fa21 1ebd c8cc 87bd 1b42 e6bb
000000c0: f058 923c f8c0 55be 5cea 143e b613 27bc
000000d0: cb12 c83c a03d 5fbe c537 ac3d af05 1ebe
000000e0: f712 23be 4b63 abbd a127 4d3e 96d1 6f3d
000000f0: 78c0 29bd 243f 38be dab4 c33d 0f21 9c3e
00000100: aa44 30be 2529 023e 3dc5 343e a790 b2bc
00000110: 039c 71bc 3f49 423d 36d2 b63d 99e0 da3d
00000120: 232c 2bbd b4f6 49be 4da4 61bd b5e2 06bd
00000130: e933 5c3c 9a70 533e 65c2 66bd 61b4 86bd
00000140: f2fe a8bd e76b 4b3e f60d a03d ac2e 8a3d
00000150: 15dd 823d e617 5c3c 0675 893d 7ecc cf3d
00000160: 00f9 7c3d 5a6a 7bbd c299 69bd 5afe a9be
00000170: 9001 7e3c 77cd b2bd 3fa8 2d3e 5420 7dbc
00000180: ab02 213e 9cc1 e6bc 88c9 11be eb90 0e3e
00000190: e907 8ebe 77f6 893e 2881 28bd 910a f0bc
000001a0: 512f 933d 9677 ec3d b3be 413d 4d7b 373c
000001b0: f8b2 a0bd 20d1 26bd e2b7 933d 48ab b5b8
000001c0: e8a3 4f3d 0a21 bbbc 00a2 bf3d 134b 493d
000001d0: 6ce2 c13e 180d 763e 7f64 b43d 2bfa d03d
000001e0: 3392 d83c a956 b3bd c148 3cbe 71ea 98bd
000001f0: c13c 97bd ae98 32bc 3919 8bbd e25e dabd
00000200: d3f5 c53c f695 af3c bf00 183d ddac bcbd
00000210: e017 38bb 6096 9bbd e38c c0bc 55df 89bd
00000220: 9b8d 8f3c f5d1 993d bb77 403d d77e 683d
00000230: 7f43 9f3d 30d2 f03c 4421 c23d 6128 6a3b
00000240: 426f 653d 8cce a7bd 8b95 6e3d 5a54 95bc
00000250: 86d5 0ebe 1ddd 3a3d f320 bbbd b5ce c13c
00000260: 62cb c33c 45a5 2cbd a606 913d 5d8d a33b
00000270: 6759 c9bd 1703 a6bd 38a7 a2bd 0c5f 4dbd
00000280: d44b 36bd c1c4 83bd 8c22 1abe 5a52 bf3d
00000290: cd80 9fbd d1a9 acbd 98eb 9cbc 6c3c 2d3d
000002a0: bd66 3a3d edbe d2bd 70c3 453d 003a b4bd
000002b0: aac9 47bd fdb2 c4bd 1cb8 e03c 3f9d 8dbc
000002c0: e5ac 2f3d 8f64 cd3c 6348 d8bd 3e91 28bd
000002d0: c46d a93c 8e9f 4d3d a986 0f3d 02fb 363d
000002e0: 1c90 eabd 8b9b acbd 9107 c43d 71e4 71bd
000002f0: 326e 83bc 3920 a83c e5d4 c03b 8e56 33bb
00000300: 4531 8ebb 0ccc 3ebd 93e8 a4bd 2b77 c2bd
00000310: 9aea bd3d 3d6c f1bd 1daf a13c c670 b7bd
00000320: ed34 b13c d552 123d 7178 55bd dba5 623b
00000330: 7c8c 46bc 1d08 9dbd cba7 623d 362e 2abe
00000340: bb92 5abc 9434 ea3c 0b37 19bc c2a9 223a
00000350: 5871 93bd cde1 17bd 9f52 5ebb c5d1 f0bd
00000360: 3b61 98bd 1bc9 57be cd19 b8bd b2d3 49be
00000370: 4137 89bc e2bc 03bd 4347 4dbd c89d 21be
00000380: 39cc 87bd fd6f 17be 734a 20bd c375 9dbd
00000390: 0a81 6bbd a8fb 0fbd 2774 cfbd 3fa7 933d
000003a0: 6e59 60bc 1102 733d e511 8ebd 9a1d fe3c
000003b0: bd0f 6dbc ef36 8fbd 0740 9b3c 0166 50bd
000003c0: 8998 b0bb a0a5 fbbd 40e9 43be a896 893e
000003d0: 0695 96bd f0b0 863d 9c58 193e ebee f9bd
000003e0: d3ad f5bc 8840 483e c921 aabd 926b c6be
000003f0: d02c 6d3b 521d 4d3a 7fd3 653e f97a a3bd

fc2.bias f4 [84]
-0.099865295 0.0020126395 -0.04458106 0.11933055 -0.016260428 0.035836704 -0.1619014 0.20653403
0.07245889 0.06900582 -0.08786147 0.0829923 0.13334303 0.18510146 -0.09923236 -0.0016751923
-0.00925897 0.11385455 -0.21011741 -0.054119404 -0.15775694 -0.14996912 -0.21757925 0.057127416
-0.14495756 -0.079719126 0.041397206 0.31539187 0.008535643 -0.088601045 0.07294034 0.11678707
0.13315454 -0.034061898 0.13720562 0.10336789 -0.16861519 0.03715418 -0.059420872 -0.11255695
0.18459591 0.028850695 0.077620305 0.062358595 0.110305905 0.17459843 -0.07479829 -0.027584812
0.032615043 -0.105511 -0.14223522 0.1397265 -0.105589494 0.0063417633 0.028055776 -0.0652694
-0.07482481 -0.09480456 -0.07451002 0.0008783942 0.0071330345 -0.10578398 -0.04338562 -0.10509967
-0.12141005 -0.082543746 0.0051098713 -0.16304724 -0.10389759 -0.11747729 -0.25722772 0.26959684
0.018070197 0.016313456 0.1646491 -0.0071014753 0.013807048 -0.099437624 0.086074315 -0.0475238
-0.09957445 -0.11001678 0.17049858 0.074980944
00000000: 2d86 ccbd 7de6 033b a19a 36bd 9363 f43d
00000010: 9734 85bc 82c9 123d 7bc9 25be a87d 533e
00000020: 5465 943d ec52 8d3d b7f0 b3bd def7 a93d
00000030: 138b 083e 3d8b 3d3e 563a cbbd 2092 dbba
00000040: efb2 17bc 932c e93d 0529 57be 4fac 5dbd
00000050: 098b 21be 8191 19be 18cd 5ebe 70fe 693d
00000060: c16f 14be c843 a3bd 1e90 293d 0b7b a13e
00000070: 15d9 0b3c 7774 b5bd bf61 953d 0f2e ef3d
00000080: aa59 083e 7d84 0bbd a17f 0c3e 8bb2 d33d
00000090: 76a9 2cbe fb2e 183d 4d63 73bd 4284 e6bd
000000a0: b606 3d3e 4b58 ec3c 65f7 9e3d ba6b 7f3d
000000b0: 10e8 e13d eec9 323e d92f 99bd 8bf9 e1bc
000000c0: 5a97 053d 2716 d8bd 1ca6 11be 7714 0f3e
000000d0: 4e3f d8bd 91ce cf3b 3ad5 e53c f7ab 85bd
000000e0: c03d 99bd e528 c2bd b698 98bd 0944 663a
000000f0: 3bbc e93b 45a5 d8bd 1fb5 31bd 7f3e d7bd
00000100: d5a5 f8bd b20c a9bd b570 a73b dbf5 26be
00000110: 42c8 d4bd ef97 f0bd 5ab3 83be 9908 8a3e
00000120: f307 943c cca3 853c c699 283e 7eb3 e8bb
00000130: f536 623c f4a5 cbbd bb47 b03d 51a8 42bd
00000140: b0ed cbbd 7a50 e1bd 2e97 2e3e 9c8f 993d

fc3.weight f4 [10, 84]
0.041749597 -0.06600365 0.06593316 -0.40753138 0.12663206 -0.35256693 -0.14741579 -0.30829847
-0.63112557 0.10049635 -0.49633873 -0.13599648 -0.3596716 0.08870194 -0.17779836 -0.3287956
-0.26829353 -0.18034598 -0.008898483 -0.48603058 -0.24238011 -0.088455565 0.011004282 0.13060744
-0.0472702 -0.010211378 -0.3977208 -0.111013666 0.010425174 0.10034029 0.068121016 0.22325574
0.23021446 -0.22711979 -0.32726339 0.32088283 -0.014662226 0.18883903 -0.05592993 -0.0032633652
-0.13261347 0.14300656 0.259141 -0.28761965 -0.20953856 -0.12429369 -0.25698486 -0.19671905
-0.4352883 -0.19086348 -0.090724155 -0.0030679388 0.0029121586 -0.34795803 -0.10757162 -0.24997605
0.0029331192 -0.17952658 -0.06050831 -0.20392837 -0.15711187 0.12771742 0.024384076 -0.5227371
0.098475866 0.24345401 -0.38148764 0.05419646 -0.71758574 -0.20191565 0.06968803 -0.40223935
-0.0295108 0.18896456 -0.2535882 -0.3710406 0.010545674 -0.0003131247 0.122086324 0.14428748
0.044666134 0.06599057 0.12268656 -0.207154 0.09387904 -0.085792325 0.20615277 0.09592415
-0.6042523 -0.025128458 -0.14603887 -0.34976155 0.08307252 -0.02645665 0.23968446 -0.2897626
0.07417294 -0.05205915 -0.13584672 -0.31008786 0.13520277 0.1492818 -0.36462933 0.11563047
-0.06552241 0.09431119 -0.082809776 -0.4212822 0.03208713 -0.46405917 0.05281084 0.10757729
-0.27279997 -0.4336433 -0.34628367 -0.09161869 0.0076601175 -0.09061633 0.042964455 0.18537413
0.13439755 -0.18966672 -0.21076725 -0.037874307 -0.44070092 -0.15782653 0.15650669 0.20636815
-0.26695624 -0.05667187 0.014389805 0.11553707 0.20908517 0.04510808 -0.53267735 0.06807292
-0.21469565 -0.30083114 0.032938648 -0.046562053 -0.09398623 -0.3548466 -0.25159505 0.117044486
0.019328875 0.027432078 -0.29622543 0.2019133 -0.3978754 0.3893218 0.04013458 -0.050814975
0.12734595 -0.0798965 -0.4955427 0.05557006 0.15777975 0.14922349 -0.2306833 -0.8604417
-0.0825088 -0.61496824 -0.26789033 -0.6821965 -0.12176118 -0.2921686 -0.28281623 -0.3652783
0.09637755 -0.02896974 -0.04897756 -0.33756363 0.1401455 0.094157815 0.11924929 -0.3875541
-0.13514021 -0.24259026 -0.00994474 -0.34707806 0.16319147 -0.5648902 -0.024093146 -0.12289346
-0.33889547 -0.28057426 -0.44921744 0.20506305 -0.11590932 0.1399765 -0.3524544 -0.029250816
-0.048902236 0.17204762 0.08905364 -0.2532846 0.03750477 0.06825532 0.057811916 0.061652057
0.17699465 -0.11568947 0.065520495 -0.29556853 -0.31129515 0.24647683 -0.012953719 0.015367391
-0.12647332 0.09434758 -0.18777011 -0.18391566 -0.13300566 -0.05492501 0.080303274 0.10224543
-0.34596378 0.066330485 -0.24385773 0.23393168 -0.23926334 -0.36578524 -0.02975444 0.07659215
0.0129331695 -0.05193649 0.1608856 0.27474728 -0.20245834 -0.23194712 -0.14877695 0.17947327
-0.42552587 -0.475582 -0.24658896 -0.2313067 -0.09641037 -0.098757595 0.13844964 -0.026549285
-0.26001567 -0.051282793 -0.03302869 -0.26159748 0.13865034 0.10301609 -0.06027388 -0.25871378
-0.47858834 0.019422423 -0.014864972 0.11172933 0.012968998 -0.03458894 -0.33395165 -0.19755082
00000000: a001 2b3d ec2c 87bd f707 873d f4a7 d0be
00000010: d6ab 013e a783 b4be 2af4 16be 4cd9 9dbe
00000020: 7291 21bf 08d1 cd3d 1c20 febe a942 0bbe
00000030: e026 b8be 5da9 b53d c610 36be e657 a8be
00000040: c55d 89be 9eac 38be f1ca 11bc 00d9 f8be
00000050: 7e32 78be 3128 b5bd 4e4b 343c f5bd 053e
00000060: 669e 41bd a04d 27bc 10a2 cbbe 225b e3bd
00000070: 59ce 2a3c 367f cd3d 0883 8b3d 279d 643e
00000080: 57bd 6b3e 1792 68be 118f a7be c14a a43e
00000090: d539 70bc 055f 413e c816 65bd 2fde 55bb
000000a0: d3cb 07be 5070 123e 21ae 843e e242 93be
000000b0: 4791 56be b18d febd 8593 83be b870 49be
000000c0: 1cde debe b771 43be 96cd b9bd 790f 49bb
000000d0: ead9 3e3b 8e27 b2be 824e dcbd b9f9 7fbe
000000e0: 9339 403b d1d5 37be 90d7 77bd 99d2 50be
000000f0: efe1 20be 5bc8 023e 1dc1 c73c 19d2 05bf
00000100: b7ad c93d 024c 793e 5952 c3be 1bfd 5d3d
00000110: b3b3 37bf fac2 4ebe 99b8 8e3d 51f2 cdbe
00000120: a2c0 f1bc ed7f 413e 50d6 81be 09f9 bdbe
00000130: c3c7 2c3c e32a a4b9 6508 fa3d 19c0 133e
00000140: d6f3 363d 1026 873d 1743 fb3d 2e20 54be
00000150: a743 c03d e3b3 afbd b619 533e e173 c43d
00000160: 47b0 1abf 32da cdbc 378b 15be f213 b3be
00000170: ed21 aa3d 9ebb d8bc d86f 753e c35b 94be
00000180: fbe7 973d fa3b 55bd 671b 0bbe d6c3 9ebe
00000190: 9872 0a3e 54dd 183e b2b0 babe abcf ec3d
000001a0: 9d30 86bd 3a26 c13d 2c98 a9bd 4db2 d7be
000001b0: cb6d 033d 2a99 edbe 2e50 583d 7b51 dc3d
000001c0: 70ac 8bbe 7f06 debe 184c b1be 94a2 bbbd
000001d0: b901 fb3b 0e95 b9bd 7ffb 2f3d b7d2 3d3e
000001e0: 839f 093e fe37 42be 5fd3 57be 1722 1bbd
000001f0: 8da3 e1be 479d 21be 4a43 203e 2c52 533e
00000200: 7dae 88be c320 68bd 37c3 6b3c b39e ec3d
00000210: 6c1a 563e 40c3 383d 8b5d 08bf d169 8b3d
00000220: 2dd9 5bbe 8a06 9abe adea 063d dab7 3ebd
00000230: da7b c0bd 74ae b5be 11d1 80be 05b5 ef3d
00000240: 9757 9e3c 3db9 e03c dcaa 97be 5cc2 4e3e
00000250: 53b6 cbbe 3055 c73e 2864 243d 5d23 50bd
00000260: fa66 023e c7a0 a3bd c6b7 fdbe 6e9d 633d
00000270: 0491 213e 0bce 183e 3e38 6cbe e845 5cbf
00000280: 60fa a8bd 8f6e 1dbf ec28 89be 6ea4 2ebf
00000290: ed5d f9bd 1f97 95be 4acd 90be c205 bbbe
000002a0: 9861 c53d f351 edbc b29c 48bd 24d5 acbe
000002b0: 4d82 0f3e d0d5 c03d f938 f43d 7e6d c6be
000002c0: 3262 0abe 9569 78be 43ef 22bc 37b4 b1be
000002d0: aa1b 273e a59c 10bf fd5e c5bc 91af fbbd
000002e0: b583 adbe 6ea7 8fbe d4ff e5be 0cfc 513e
000002f0: de61 edbd 0056 0f3e e774 b4be 689f efbc
00000300: b64d 48bd 402d 303e c161 b63d 85ae 81be
00000310: 9a9e 193d 72c9 8b3d 30cc 6c3d de86 7c3d
00000320: 163e 353e 9aee ecbd 9c2f 863d c254 97be
00000330: 1462 9fbe 6c64 7c3e d63b 54bc 82c7 7b3c
00000340: 3982 01be 4e39 c13d cf46 40be 6354 3cbe
00000350: a332 08be 0cf9 60bd 0b76 a43d 0d66 d13d
00000360: 2a22 b1be 47d8 873d d7b5 79be c98b 6f3e
00000370: 7301 75be 3448 bbbe 95bf f3bc 58dc 9c3d
00000380: a5e5 533c 5bbb 54bd 32bf 243e adab 8c3e
00000390: 3d51 4fbe 8c83 6dbe fc58 18be d7c7 373e
000003a0: 87de d9be 7c7f f3be d181 7cbe aadb 6cbe
000003b0: cd72 c5bd 6c41 cabd bec5 0d3e e37d d9bc
000003c0: c620 85be e80d 52bd 1749 07bd 1bf0 85be
000003d0: 5bfa 0d3e 1afa d23d bee1 76bd 2276 84be
000003e0: 8809 f5be c61b 9f3c 368c 73bc 59d2 e43d
000003f0: ec7b 543c 22ad 0dbd b6fb aabe c34a 4abe

fc3.bias f4 [10]
0.033567164 -0.107468285 0.07348029 0.03537986 0.021239791 -0.18045345 -0.075896785 -0.0722361
0.22335541 -0.09076491
00000000: b97d 093d 5518 dcbd d67c 963d 79ea 103d
00000010: 12ff ad3c cac8 38be c66f 9bbd 85f0 93bd
00000020: 48b7 643e f4e2 b9bd
