Bejin212222230021.pt (torch, 243972 bytes, 10 tensors)

conv1.weight f4 [6, 1, 3, 3]
000000 fb 46 ec bc 76 f0 fe bd 7f f7 c8 3e fc ea f1 be
       -0.02884244 -0.12448208 0.39251325 -0.4724959
000010 58 3e 89 be 97 9d e1 3e a2 d6 cc be 68 ae 41 be
       -0.26805377 0.44065544 -0.40007502 -0.18914187
000020 83 6e 09 3f b5 a2 1d 3d 7b 7c 08 3e 5c 40 c6 3e
       0.5368425 0.038485248 0.13328736 0.38720977
000030 1f 5f 9b 3d c4 41 c2 3e 4c ca de 3a 30 27 c0 bd
       0.07586502 0.379408 0.0016997545 -0.093824744
000040 0c 45 14 bf fd ff bf be 7d 84 a7 bd 69 f3 57 3e
       -0.5791786 -0.3749999 -0.08179567 0.21088947
000050 5c 80 b3 3c 87 4d 85 be 09 5a 89 3d 74 2b 3a 3d
       0.021911792 -0.2603571 0.06706626 0.045451596
000060 e0 0b 8f be b0 32 9a 3e 66 6f 3b bd 36 73 7a 3e
       -0.27938747 0.30116796 -0.045760535 0.24458012
000070 64 d9 57 3e 30 c7 09 3f 80 d4 9e bd f3 c3 c7 bd
       0.21079022 0.5381956 -0.07755375 -0.09754171
000080 f7 90 f2 bc 19 e1 10 bf 0d 79 f9 be 96 67 8a be
       -0.02961014 -0.5659347 -0.48725167 -0.27032155
000090 42 84 ac be bd cc 48 be 76 4f 00 3f 63 1b cb 3e
       -0.33694655 -0.19609351 0.5012125 0.39669332
0000a0 6a 6d bc 3e 89 fb b4 3e f2 70 23 3d 36 ae 77 be
       0.36802226 0.35348156 0.039902635 -0.2418755
0000b0 d1 8a c9 be d3 48 af 3e bc 41 66 3d ed 18 9a be
       -0.3936372 0.34235248 0.056215033 -0.30097142
0000c0 da 5e 8a 3e 2b 9e d7 3e b5 92 c7 3e 84 b4 ae be
       0.2702549 0.4211286 0.38979116 -0.34122097
0000d0 94 b3 a8 3e a6 95 9f 3d
       0.32949507 0.07792215

conv1.bias f4 [6]
000000 47 32 33 be 4e 75 29 bd c6 97 d2 bc 0d 96 6c 3d
       -0.17499648 -0.041371636 -0.025707137 0.057760287
000010 f8 8d 81 be 3e 6d 72 be
       -0.25303626 -0.23674485

conv2.weight f4 [16, 6, 3, 3]
000000 27 b2 26 3d 88 84 5e bc e7 0a f5 bd 06 b6 15 be
       0.040697243 -0.013581403 -0.1196497 -0.14620218
000010 5d c2 2f 3e a9 38 56 be 01 6e 07 bf 2f a9 14 bf
       0.17163987 -0.20920052 -0.5290223 -0.58070654
000020 ff 47 a0 be 30 ef 35 3d 30 62 c5 3b dd ac da 3d
       -0.3130493 0.04441756 0.0060236678 0.10677502
000030 fa d2 ef bd 21 c7 9a 3e d4 94 ac 3e ea e5 0b bf
       -0.117101625 0.30230048 0.33707297 -0.54647696
000040 94 e7 82 be e8 b4 d5 be a3 be c5 bc 70 40 e8 3d
       -0.25567305 -0.41739583 -0.024138754 0.113404155
000050 ab 81 31 3e fd fa f7 bd 57 c8 93 3d e8 95 40 bd
       0.1733462 -0.12108419 0.07215946 -0.04701796
000060 b2 d1 a1 be 66 94 7e be f6 1c 7f be 05 8d 6a 3d
       -0.31605297 -0.24861297 -0.24913391 0.057263393
000070 35 ec fd bd c4 c8 c8 bc db 36 c9 3e 28 b2 97 3e
       -0.123985685 -0.024509795 0.39299664 0.2962811
000080 2f 90 dd 3e 16 58 7b be 0b 87 e1 bd 99 b4 ac be
       0.43274066 -0.24545321 -0.110120855 -0.33731535
000090 50 a2 9c 3d 72 ce d4 bc 24 35 83 3e c7 9a 75 be
       0.07648146 -0.025977347 0.2562648 -0.23984824
0000a0 48 7c 6b 3b b9 de ea 3e 83 02 2e bf 65 2a 26 bf
       0.0035932232 0.4587305 -0.6797258 -0.6490844
0000b0 14 96 25 bf c3 4d 6d 3e 90 69 44 3e 09 ce 95 3d
       -0.64682126 0.23174195 0.19180894 0.07314689
0000c0 d5 8e 28 be 4e ae 7c 3d 48 1c 44 3d 2f 2b 00 be
       -0.16460736 0.061689667 0.047878534 -0.12516473
0000d0 ab 74 a0 be 16 27 51 be ec 3e e5 3e 08 c0 dc 3e
       -0.3133901 -0.20425066 0.44774568 0.43115258
0000e0 aa 17 99 bd 6c ee 27 3e 1b d3 46 3d 8f 89 8b be
       -0.07475217 0.16399544 0.04854117 -0.27253386
0000f0 55 87 1f bf 36 85 32 bf 59 8a da bb 24 32 9e be
       -0.62315875 -0.69734514 -0.0066693244 -0.3089763
000100 18 cc c2 bd 2a 47 00 3e a9 87 4f 3d 1a 94 6c 3e
       -0.09511584 0.12527147 0.050666485 0.23103371
000110 15 56 5f be 79 73 bb 3e 05 bc 1b 3d 3b 5d 32 bf
       -0.21810181 0.36611536 0.038021106 -0.6967351
000120 fe e0 22 3e 7c e3 bf 3e 6b 4f 2d be d7 d7 8a 3c
       0.1590614 0.37478244 -0.16924827 0.016948624
000130 11 52 28 3d 54 c1 f2 be c9 f0 d0 be 3f 9b f8 be
       0.04109389 -0.47413123 -0.40808704 -0.48555943
000140 6d ce b0 be d5 91 b3 be c9 46 ca be de e7 e5 3d
       -0.3453249 -0.350722 -0.3950713 0.11225866
000150 a7 45 d9 be 79 63 5d 3e 87 31 d5 bc 8f a4 fa 3e
       -0.42435953 0.21619977 -0.026024593 0.48953673
000160 5a 95 47 3e e8 a6 da be 15 82 17 be da 78 4f 3e
       0.19490567 -0.42705464 -0.14795716 0.20260945
000170 f3 61 ea 3d 9e 3c 59 3e da 24 a3 3e e9 a5 07 bf
       0.114444636 0.2121453 0.31864053 -0.52987534
000180 2f d6 d6 3e a7 9f a7 bd 11 13 d6 bd f7 21 c2 bd
       0.41960284 -0.08184748 -0.104528554 -0.094791345
000190 a5 15 89 3e 96 3c a4 3d bf f7 c6 3d 0a 71 05 3e
       0.26774326 0.08019368 0.097152226 0.13031402
0001a0 7a d1 b4 be bd d2 73 3d 0d 64 d7 be 07 8d e4 be
       -0.35316068 0.059527148 -0.4206852 -0.44638845
0001b0 78 93 21 bd a6 1b 85 3e 7d a0 c9 bd a2 b1 aa bd
       -0.039447278 0.25997657 -0.09845064 -0.08334662
0001c0 14 69 21 3e 21 91 9b 3e db 28 49 3d d6 f2 8b be
       0.1576274 0.30384162 0.04911123 -0.27333707
0001d0 30 48 99 bd 0b cc a9 3c 9d 6c 48 3d 5c 5f 49 be
       -0.07484472 0.020727178 0.048931707 -0.19665283
0001e0 31 b7 bc bd 35 f0 18 be d5 50 71 3d ef 88 03 bd
       -0.092146285 -0.14935382 0.058914978 -0.032113012
0001f0 22 10 a1 be 50 96 d5 3e 01 51 b6 bd 1d 36 2e bb
       -0.3145762 0.41716242 -0.08902169 -0.0026582547
000200 8a 23 c5 3d 7c a8 77 be 55 37 c6 3c e5 7d 5b bd
       0.09625919 -0.24185365 0.024196306 -0.05358686
000210 7f a9 23 be dc a6 7c be 9d 08 d3 bd ca 64 e0 3d
       -0.15982626 -0.24673027 -0.10304377 0.10956724
000220 dd 71 ea 3d 6d 1f 7a be b6 a9 53 bd 9d b2 47 bd
       0.11447499 -0.2442605 -0.05167552 -0.048754323
000230 ef 61 a8 3e 4e f4 3c bd e7 18 06 be 63 4b ca 3e
       0.32887217 -0.046131425 -0.13095437 0.3951064
000240 b6 36 96 3d 6c 9f f6 bb 82 ad 39 be ca 02 0f be
       0.07334654 -0.007526329 -0.18132594 -0.13965908
000250 38 b1 42 be a8 d9 ae 3d be cb eb be 1a db c7 be
       -0.19012916 0.085376084 -0.4605388 -0.3903435
000260 d5 b6 31 3e fe 68 b7 3d 3c c1 9c 3c 55 1e a1 3e
       0.17354901 0.089555725 0.01913511 0.31468454
000270 ad 11 c0 bc 47 d6 3e bd 7a 1f 03 3d 24 27 77 be
       -0.023445928 -0.04659107 0.03201244 -0.24136025
000280 8a 78 f9 be 10 ff 62 be 2f fa dc bc 8b b0 43 bd
       -0.48724777 -0.22167611 -0.026974766 -0.047775786
000290 a8 ba 8b 3c 56 b5 e2 3d 1d 41 b1 3e 36 f0 b3 be
       0.017056778 0.11069743 0.3461999 -0.35144204
0002a0 dd 11 08 be fb e1 f5 3e 6a d4 05 be 74 12 b9 bb
       -0.13288064 0.48023972 -0.13069311 -0.0056479517
0002b0 69 28 0a bf 51 7b fa bd f1 01 f1 bd 19 30 fe bd
       -0.5396791 -0.12230552 -0.117679484 -0.12411518
0002c0 95 22 f3 be 3a ae 72 bd 1e 35 00 3e f0 87 7a be
       -0.47487321 -0.059248187 0.12520263 -0.24465919
0002d0 81 e1 15 be f0 21 78 be 2d e4 a5 be 12 f7 66 3c
       -0.14636804 -0.24231696 -0.32400647 0.014096992
0002e0 cf f2 3d 3e b0 50 66 be f7 09 8a be ce b4 34 3d
       0.18549655 -0.22491717 -0.26960728 0.04411774
0002f0 d8 ba ad 3c fe 15 d6 3d 46 8d 06 bf d4 36 b2 3c
       0.021207258 0.104534134 -0.52559316 0.02175466
000300 75 3c 29 3e c2 a3 c6 be 43 73 e0 be 9c 5c 96 be
       0.16526969 -0.38796812 -0.43837938 -0.2936753
000310 e0 54 d7 bd 6d 19 a0 be d2 47 5d be 4c 70 fa be
       -0.105142355 -0.31269398 -0.21609429 -0.489138
000320 47 21 ef be ce a3 20 3c 3b d1 9a bc 24 4c bc be
       -0.46705076 0.009804679 -0.018898597 -0.3677684
000330 e8 58 4f 3e e0 2c 7f 3d b0 03 fb bd c7 69 de 3e
       0.20248759 0.062298656 -0.12256563 0.43440077
000340 d3 b2 c3 3d 90 bb 01 bf 0b 62 50 3e 57 98 c3 3e
       0.095555924 -0.5067682 0.203499 0.38202164
000350 6a a4 ce bd 4e 0a e3 bd 9a 70 03 3e e4 43 96 3e
       -0.10089953 -0.1108595 0.12835923 0.2934867
000360 78 e6 c4 3e 07 55 a4 3e 2d db 9b bc 81 82 70 bd
       0.38457084 0.3209612 -0.01902541 -0.05871821
000370 dd b8 a6 3e c3 3c 6a bd 7d d0 0a bf 76 68 aa 3d
       0.32562914 -0.057186853 -0.5422438 0.083207056
000380 6d 5e 41 3e 4c 11 11 be dc 7f df bd 60 bb 7a bb
       0.18883677 -0.14166754 -0.10913059 -0.0038258657
000390 b8 f2 35 3d 3b a8 e5 bd ff 98 30 be c5 8b 8d be
       0.044420928 -0.11213728 -0.17245863 -0.27645698
0003a0 b5 3f 65 be 79 56 ac be f3 d3 23 be 19 11 d9 3d
       -0.22387584 -0.33659723 -0.15998821 0.10598964
0003b0 7f 7c 1f 3e fc b1 c4 be 09 b5 6a 3d 92 16 51 3d
       0.15574835 -0.3841704 0.057301555 0.051046915
0003c0 93 be 06 bf 4a cb 27 be 19 a8 3f 3e 69 55 13 3d
       -0.52634543 -0.16386142 0.18716468 0.035970125
0003d0 74 1e f8 3d e1 fd a8 be 33 c4 2b bd 71 a9 30 3e
       0.121151835 -0.33006194 -0.041935157 0.17252137
0003e0 39 e1 81 be b0 95 e3 be 85 31 3c 3d af e9 88 be
       -0.25367144 -0.4445014 0.045945663 -0.26740786
0003f0 a5 50 f5 3d 75 26 8f 3c 66 c4 35 bd cb 94 85 be
       0.11978272 0.017474392 -0.044376753 -0.26090083

conv2.bias f4 [16]
000000 e9 ab 99 bd e7 89 ae bd 2d cb 13 be 84 d2 55 be
       -0.075034924 -0.085223965 -0.14432974 -0.20881087
000010 69 c3 83 be 8d c9 b2 be 25 ee 3a bd 6c e1 f6 bd
       -0.25735024 -0.34919396 -0.04563727 -0.120547146
000020 74 39 e1 be 7f 42 37 be 11 b1 a2 be 20 39 cf be
       -0.43989146 -0.1789646 -0.31775716 -0.4047327
000030 8f 42 d4 3b 73 23 01 be d5 55 27 be 8b 5e 19 be
       0.006477661 -0.12611179 -0.16341336 -0.14977472

fc1.weight f4 [120, 400]
000000 8b 91 51 3c 83 03 08 3d 1c 64 03 be 19 46 a2 bd
       0.012791048 0.033206474 -0.12831157 -0.07923526
000010 7e 07 f0 3d 76 45 28 3d b2 e8 2f be e2 78 5b be
       0.11720179 0.041081868 -0.1717861 -0.21432832
000020 1a f4 1d be 93 c5 67 be a1 1c a0 3d 30 90 a4 bc
       -0.15425149 -0.22633962 0.078179605 -0.020088285
000030 93 7d 20 be 9e 96 3d be c8 12 44 3e 21 88 2e be
       -0.15672903 -0.18514487 0.1914779 -0.17044117
000040 3d 77 f9 be 3e c6 47 be c5 ec f0 3c 1f 09 e6 3e
       -0.48723784 -0.19509217 0.029409776 0.44928834
000050 4a dd ac bc 3e 26 4c 3d 0f 27 0a 3e 2d 6e bf 3c
       -0.021101613 0.049841158 0.13491462 0.023367966
000060 40 40 00 3e be b1 d5 3c e7 95 94 3d 97 4d 9b bd
       0.1252451 0.02608573 0.07255154 -0.075831585
000070 a6 c4 2d 3d d0 0a ab be 7c eb 86 bc d1 f7 17 be
       0.042423867 -0.33406687 -0.01646971 -0.14840628
000080 45 e6 b0 bd a7 77 3c 3d c1 50 3c be d6 c2 e2 bc
       -0.086376704 0.046012547 -0.1839018 -0.027680796
000090 ad 37 c8 be 02 09 03 3e 41 63 09 3e 88 fc b7 3e
       -0.39104977 0.12796405 0.13416769 0.35934854
0000a0 21 8b ed 3c 73 b6 83 3e 9a 94 30 3e 3e 16 87 3d
       0.028997006 0.25725135 0.17244187 0.06596039
0000b0 1f a4 06 be f8 4e 5a be aa 7c 1e bc 9d 77 12 be
       -0.13148545 -0.21319187 -0.009673277 -0.14303441
0000c0 85 de f1 3d 66 96 06 bd 04 e5 fa 3b 21 5a fe 3c
       0.1181002 -0.032858275 0.0076566953 0.031048836
0000d0 49 81 cf bd fd a3 10 3d 0c b0 a4 3d 3e bc 7b 3d
       -0.10132081 0.03531264 0.08041391 0.06145882
0000e0 e3 ed 4b 3e 8d 06 13 3d 5f 72 5b bd 35 c3 7b 3e
       0.19914965 0.03589492 -0.05357587 0.24586184
0000f0 75 ad ea 3d d0 3e b3 bc 3a 86 4a bd 71 a1 9d be
       0.114588656 -0.021880537 -0.049444415 -0.30787233
000100 6c 4d 8b 3d dd 40 eb bd 7e de 62 be ae 1c 4b be
       0.068018764 -0.11486981 -0.22155187 -0.19835159
000110 98 ec 97 3d 21 97 1f 3c 36 0e 30 bb 3e c7 95 3d
       0.074181736 0.009740622 -0.002686394 0.07313393
000120 76 07 07 be 1d 79 44 3e 40 32 c8 3d 17 09 af be
       -0.1318644 0.19186826 0.097752094 -0.34186623
000130 b6 48 80 bd 04 a6 b3 bc bc fa a6 3d c0 a6 5f bd
       -0.062638685 -0.021929748 0.081532925 -0.054602385
000140 ef 45 c2 bd 75 3e 04 be c1 0b 5c 3d ba f2 1d 3e
       -0.09485995 -0.1291445 0.053722147 0.15424624
000150 0a cc 9c 3d fb 3e 8e be d8 05 01 be d6 b2 14 3e
       0.07656105 -0.27782425 -0.12599885 0.14521345
000160 71 60 57 bd 34 e1 56 be 6d 83 0f bf 7f 65 ab bd
       -0.052582208 -0.20984346 -0.56059915 -0.08368968
000170 d3 bc 24 3d c0 86 82 3d 07 d4 62 bd 45 64 51 be
       0.04021914 0.06373358 -0.055377986 -0.20448406
000180 36 eb d5 bc 4a 95 9d bc ee d5 72 3e f3 f0 01 be
       -0.026113134 -0.019236226 0.2371442 -0.12689571
000190 37 e7 9d bd e8 4a 11 3e 7f c9 2c 3e 90 11 c1 bc
       -0.07710116 0.1418873 0.1687374 -0.023567945
0001a0 b1 f1 0c 3e e8 5c 0b be b5 e5 ed 3d cb c0 6b 3e
       0.13764073 -0.1360966 0.11616079 0.23022763
0001b0 a5 14 28 3e d4 49 a1 3e 16 4a cc bd 8b 17 42 3e
       0.16414125 0.3150164 -0.09975068 0.18954293
0001c0 9c 56 8f 3e db b5 ed 3c 77 79 f3 3c 3d 5b 59 bd
       0.27995765 0.02901738 0.029721005 -0.053065527
0001d0 e2 2e 6c 3e da a7 00 bf 40 a9 27 bc 57 d3 e2 bd
       0.2306476 -0.5025612 -0.010233223 -0.11075466
0001e0 96 f5 ff bd 35 08 0b 3e 73 69 a4 bd 95 1f 39 3e
       -0.12498014 0.1357735 -0.08027925 0.18078454
0001f0 45 84 5f 3d 70 3a 1f be be c7 a4 bd e0 cd 5b 3d
       0.0545695 -0.15549636 -0.0804591 0.053663135
000200 d4 e8 8d ba 6d 94 42 3e 59 70 e9 3d 8f c4 61 bc
       -0.0010826834 0.19001932 0.11398382 -0.013779773
000210 0f 6f 4f 3d dd 69 a6 3d 08 89 37 3e 76 bb 10 3e
       0.050643023 0.081256606 0.17923367 0.1413401
000220 60 75 3f 3a 66 07 7f bd ad 84 06 3e 8b 36 bc bd
       0.0007303562 -0.062262915 0.1313655 -0.09190091
000230 14 dc b0 be e7 7a e9 be 1d fe d2 bd 32 1a 14 3e
       -0.34542906 -0.4560158 -0.103023745 0.14463118
000240 f8 8d a9 3d af a3 9f bc 0d 90 57 3e 61 a8 fd 3d
       0.082790315 -0.01948723 0.21051045 0.12385631
000250 03 ef d8 3d 13 67 66 3b 2c ed 3a be a0 c6 07 be
       0.10592463 0.0035156652 -0.18254536 -0.13259363
000260 9d ca 4e be b0 03 55 bd 33 2c 25 3e 7f 48 4a 3d
       -0.20194478 -0.05200547 0.16130142 0.049385544
000270 82 61 20 be fb d5 54 be 19 39 09 3d 4b aa 1e 3d
       -0.15662196 -0.20784752 0.03350172 0.038736623
000280 36 a2 fd 3d 25 5a 87 bd 35 51 c4 bd ab bb e6 bd
       0.12384455 -0.066089906 -0.095858015 -0.112662636
000290 a8 8a 04 3e 95 ba 89 bd 97 63 40 be 8c be 21 be
       0.12943518 -0.06725041 -0.1878799 -0.15795344
0002a0 76 de b5 bd 00 eb 91 3e ae 36 50 3e 14 0f c7 3c
       -0.08880322 0.28499603 0.20333359 0.024299182
0002b0 d0 52 2c 3d b5 a1 9b 3d 2f 86 82 3e c2 1b 05 be
       0.042071164 0.075992025 0.25493 -0.1299887
0002c0 59 2b 99 3d ee df 28 be 14 12 55 bd 4a eb 1d be
       0.07478971 -0.16491672 -0.052019194 -0.15421787
0002d0 ae f2 ae 3d 01 ff 06 3e bb 3f 09 3e b0 2f 51 3e
       0.08542381 0.13183214 0.13403217 0.20428348
0002e0 37 ee 28 3e 21 8f 77 be 3b dc be bd 8c 4d 3f be
       0.16497122 -0.24175693 -0.093193494 -0.18681926
0002f0 70 85 61 3e 4a 4f 8e 3e 46 a6 ae 3d 3b f8 14 3f
       0.22023559 0.27794868 0.08527808 0.5819127
000300 88 7f 5a bd da c6 9c bd 72 d4 18 bd 3f de 8e 3e
       -0.05334428 -0.076551154 -0.03731198 0.27903935
000310 3a 78 2a 3e 8c 2c e8 bd 99 c3 7d be eb 28 95 bd
       0.16647425 -0.11336622 -0.24781646 -0.07283195
000320 78 88 85 be b5 1f 19 be 36 b4 3a bd de 9d ab bd
       -0.2608068 -0.14953502 -0.04558202 -0.0837972
000330 9b fa 43 bd d2 d1 8c 3d 7f e7 1f 3e 66 45 4d 3e
       -0.047846418 0.068759575 0.15615653 0.20046005
000340 e7 42 22 be 8e c2 13 3e 43 ee 79 3e d9 63 c9 3e
       -0.15845834 0.14429685 0.24407296 0.3933399
000350 eb 77 4b 3d 92 ef d4 bd ea 53 88 bd d2 dd ad be
       0.04967491 -0.10397257 -0.0665663 -0.33958298
000360 49 04 af bd b2 6e 46 bd 5a a4 21 3e 29 ab 3c 3b
       -0.08545739 -0.04844541 0.15785351 0.0028788543
000370 bd 11 57 bd 31 0c 9d 3e bc af 96 3c bb e6 4a be
       -0.05250715 0.30673364 0.018394344 -0.19814579
000380 af 36 3a bc fa 47 4b 3c 62 92 a0 3d 91 eb 71 3e
       -0.011365577 0.012407297 0.0784042 0.23625018
000390 f5 81 91 be d2 2b c5 bd dd 26 a0 3d e2 92 88 3d
       -0.28419462 -0.09627499 0.078199126 0.06668641
0003a0 5e d5 05 be 88 f7 94 be 63 be 11 be b4 a4 ac 3d
       -0.13069674 -0.290951 -0.14232783 0.08429852
0003b0 7f 4a 78 bd 6f 7d 9b bd 4a d6 ad bd 78 d3 46 be
       -0.06061792 -0.07592284 -0.08488138 -0.19416606
0003c0 fe 7e db 3d 08 92 29 3e ad 1c a6 3d 7e b8 85 be
       0.10717581 0.16559613 0.08110938 -0.2611732
0003d0 e2 1f 58 bd b5 2d 17 3e 81 85 77 3e e1 e3 55 be
       -0.05276478 0.1476353 0.24172021 -0.2088771
0003e0 14 20 c7 be 8e c2 64 bd 29 72 41 be 92 33 95 bc
       -0.3889166 -0.055849604 -0.18891205 -0.018213067
0003f0 75 16 94 3d 97 87 00 bd 3d 5e 82 3c 93 7a 00 3e
       0.07230846 -0.03137931 0.015914077 0.12546758

fc1.bias f4 [120]
000000 aa 91 31 bd 28 ce d2 3d 10 e1 32 bd 32 62 78 3d
       -0.043351807 0.102932274 -0.043671668 0.06064052
000010 25 ff 7f bd fb 8b 43 be c7 0d 40 3c bb c1 91 3d
       -0.062499184 -0.19096367 0.011722035 0.07117029
000020 16 6a e2 bc 4f 48 8f bd b7 23 3d bd 38 0d 3a bd
       -0.027638476 -0.06996214 -0.04617664 -0.045422763
000030 24 5d d2 bc 93 b3 44 3d b4 5f f9 3c aa 23 72 bd
       -0.025679179 0.048022818 0.030441143 -0.059116043
000040 f6 cc b3 bd 3a 20 94 bd bc 80 53 bd bb c0 a8 bd
       -0.087793276 -0.07232709 -0.051636443 -0.082398854
000050 f0 f0 55 bd 81 62 2e 3c fe 76 ac 3d a2 95 34 3b
       -0.05223173 0.010643602 0.084211335 0.0027555008
000060 9c cc 51 bc 56 95 8e bd 0d bf 9e bd a6 75 2f bd
       -0.01280513 -0.06962077 -0.07751284 -0.042836808
000070 e0 99 9e 3d 7d 91 67 bd d9 60 fc 3c 39 9f 3e bd
       0.07744193 -0.056535233 0.0308079 -0.046538565
000080 9d 49 ba bc fa 08 32 3c 29 76 fb bd 67 e7 2b be
       -0.02274018 0.010866398 -0.12278397 -0.16787492
000090 74 15 97 bd 04 61 2e bd d6 37 d9 3c 33 01 ab bc
       -0.07377139 -0.04257299 0.026515882 -0.020874595
0000a0 5c f5 23 bd bc 9a 9b bd 03 cb de 3c 06 a1 aa 3c
       -0.040028915 -0.075978726 0.027196413 0.020828735
0000b0 4e d4 95 bd 64 c4 a2 3c 13 8b 06 be 02 3b 94 bd
       -0.073158845 0.019869037 -0.1313899 -0.07237817
0000c0 97 33 09 3d 1c ec 13 bd f2 33 86 bb 9e dc a6 3c
       0.033496466 -0.036113843 -0.004095548 0.02036887
0000d0 a9 18 77 bd 54 01 5c bc d6 d9 80 bd 77 f5 88 3b
       -0.060326252 -0.013428051 -0.06291549 0.0041796523
0000e0 74 34 a5 bd 02 90 6c 3c 30 04 6c bc 5f c2 ad bd
       -0.08066645 0.014438631 -0.014405295 -0.08484339
0000f0 9d e9 0c bd 09 88 58 3d ad 55 6d bc ec 99 31 bc
       -0.03440248 0.05286411 -0.014485759 -0.0108399205
000100 66 ce 07 be db 01 23 3c cc 80 5a bd 17 91 fe 3c
       -0.13262329 0.009949173 -0.053345487 0.031075044
000110 e8 04 ab 3c f9 85 9a bd 82 62 28 bd 8c ba 86 bd
       0.020876363 -0.075450845 -0.04110957 -0.0657855
000120 e2 9e 7e bd 56 c5 35 3d 81 b4 05 bd b3 24 1a bd
       -0.06216324 0.044377647 -0.032642845 -0.037632655
000130 88 3a 4d 3d b9 e5 12 bd 8b 87 11 be 83 14 d1 bc
       0.050104648 -0.03586361 -0.14211862 -0.025522476
000140 1e 08 6f 3c 01 e7 02 b8 5e e8 88 bd 71 78 ca bc
       0.014589338 -3.1209554e-05 -0.066849455 -0.024715634
000150 ad db 1f bd 52 98 0d bd f5 dd 9a 3c 43 45 f4 bb
       -0.03902786 -0.034569092 0.018904665 -0.0074545457
000160 68 d1 11 bd 89 32 50 bd 47 ea 2e 3d ea 0f 28 be
       -0.035600096 -0.050829444 0.042703893 -0.1641232
000170 9e 95 e2 bc a2 42 99 bd de e4 eb bc e8 a8 a2 bd
       -0.027659234 -0.07483412 -0.028795656 -0.079423726
000180 6e 91 80 bd 77 6b 51 bc a8 9b 1a be de 00 ca 3c
       -0.062777385 -0.012781969 -0.1509844 0.024658617
000190 bf d0 b7 bc b4 8f f9 3c a2 5f 4d bd ac 1f 49 bd
       -0.022438405 0.03046403 -0.05014003 -0.04910247
0001a0 07 47 d0 bc c5 2b 20 bd 93 b5 55 bc e8 40 25 bc
       -0.025424493 -0.039104242 -0.013043779 -0.010086276
0001b0 27 c9 68 3d 30 99 bd 3d 70 ae 31 3c bc da f5 3c
       0.05683246 0.09257734 0.010844812 0.030011527
0001c0 56 51 ac 3d c6 16 d8 3c 8d 30 49 bd dc 3e 00 be
       0.08413951 0.026378047 -0.049118567 -0.12523979
0001d0 0d 53 9d bb fd bb c7 bc f2 39 50 bd 7b b1 6f bd
       -0.00480116 -0.024381632 -0.05083651 -0.058518868

fc2.weight f4 [84, 120]
000000 24 4e 90 3d 0c 5e cc be 5f 36 61 3e 85 81 98 be
       0.07046154 -0.39915502 0.21993397 -0.29786316
000010 8b ce 84 3c 59 16 1e be eb 3a ca 3e f1 ce 30 be
       0.016211769 -0.15438212 0.39498076 -0.17266442
000020 b2 a8 1e 3d 16 9e 8a 3e dc b2 2e bd 40 5e 31 bd
       0.0387351 0.27073735 -0.042651042 -0.043302774
000030 03 f6 21 be 10 8a 87 bc 54 42 d9 bd a1 ee 95 3e
       -0.15816502 -0.016545326 -0.10608354 0.29283622
000040 be 58 44 3d 41 33 83 bd 63 7a 6f 3e bb 8b 55 be
       0.047936194 -0.0640626 0.2338653 -0.20854084
000050 6a 7a 30 be 71 88 8d bd eb 5b 93 bc 69 15 22 bd
       -0.17234197 -0.0691079 -0.017988166 -0.0395712
000060 3d 4f 57 bc 11 f0 75 3e b2 b1 2e bd 09 15 3e 3e
       -0.0131414505 0.2401736 -0.042649932 0.18562712
000070 8f 87 b3 3d 72 f2 fb bb 31 f2 77 bd fc fb 88 3e
       0.0876609 -0.007688814 -0.060533706 0.2675475
000080 7e 2f 29 bd a6 ed 4f 3e 92 cf a0 bc 83 1b c7 3d
       -0.041305058 0.203055 -0.019630227 0.09722044
000090 14 db 39 3e dd 04 10 be 4a 99 41 be c4 58 6c 3d
       0.18149978 -0.14064355 -0.18906131 0.05770184
0000a0 b4 41 34 3d 16 6e d7 be ec f0 4a 3d 17 97 b8 be
       0.044007972 -0.42076176 0.049546167 -0.36052772
0000b0 b2 95 bb 3d f4 95 4c 3e 21 1c db bd a4 14 13 be
       0.091594115 0.19979078 -0.106987245 -0.14363343
0000c0 6b 45 dd 3d d3 0e 8d 3e 4d d7 64 3e 34 4a 87 bc
       0.10804256 0.27550372 0.22347756 -0.016514875
0000d0 d6 b9 63 3e c3 a5 5e be d2 e8 95 bc 85 23 e9 3b
       0.2223886 -0.2174292 -0.018299494 0.00711483
0000e0 ca 4f b9 be fb a7 5e 3d 35 38 95 bc 60 2e 5b be
       -0.36193687 0.054359417 -0.018215278 -0.2140441
0000f0 46 8e 3c 3e 3a c9 92 bd 6f bc 1e be 66 41 4a 3c
       0.18413648 -0.07167287 -0.15501569 0.012344694
000100 b0 7f 1d 3b ae 46 04 3e 43 0e c6 3b c9 90 0e be
       0.0024032407 0.12917587 0.0060441806 -0.13922419
000110 71 46 06 be 59 25 7b 3e 30 4e 2d bd 7a 73 2b 3d
       -0.13112809 0.24525966 -0.042310894 0.041858174
000120 b1 d6 ee 3c c6 df 89 be e7 6b b3 be e5 9d 3d be
       0.029155107 -0.26928538 -0.3504326 -0.18517263
000130 e5 68 f4 bd be b1 82 be a9 18 09 bb 44 30 1e be
       -0.119340695 -0.25526232 -0.002091924 -0.154481
000140 2f e2 db 3c 54 12 20 bd 6e 91 a9 bd b7 74 29 3e
       0.026841251 -0.03907998 -0.08279692 0.1654843
000150 3c 23 82 bb 2d 56 8d 3d ee 0b bd 3d 2d 9a 79 be
       -0.0039714854 0.06901202 0.09230791 -0.2437522
000160 93 b5 32 3d 0d a4 97 3c 31 c7 38 3b 8f 26 a7 3c
       0.043630194 0.018510843 0.00281949 0.020404128
000170 15 c5 91 be 53 f7 9d 3e e2 7d 45 3d 46 82 90 3d
       -0.28470674 0.30852756 0.048215754 0.07056098
000180 92 50 cd 3e f8 f9 41 3d 6c ed 5c 3c 54 e6 06 be
       0.40100533 0.04735753 0.01348434 -0.131738
000190 1c 46 01 bd 6b 84 80 bc 47 b9 4a 3e ca 5c 4a bc
       -0.031561002 -0.015688142 0.1979724 -0.012351224
0001a0 ff f6 93 bd 2c 48 6a be cc b0 3d be 3c 7a d8 bd
       -0.07224845 -0.22879094 -0.18524474 -0.10570189
0001b0 3f 63 8e 3e 1a 1c 4e be a7 f6 d4 bd b1 f0 4f be
       0.27810094 -0.20127907 -0.10398608 -0.2030666
0001c0 82 d2 15 be 50 55 7d 3d 6b 05 5b 3d 89 f3 19 bd
       -0.14631084 0.06184894 0.053471964 -0.03758577
0001d0 78 29 81 bd ae 69 44 3e 53 87 15 3d e3 0e 45 3e
       -0.06306738 0.19180939 0.03650601 0.1924396
0001e0 00 6c 1c 3e cd bf 1b 3e ab 07 4e 3e ab b9 b8 3d
       0.15275574 0.15209885 0.20120113 0.09019788
0001f0 42 80 b2 bd d3 7c 37 3e e7 6b a4 3e 58 93 01 3e
       -0.087158695 0.1791871 0.32113573 0.12653863
000200 16 2e 65 bd 30 05 80 bd 70 74 3e bd a4 2a d5 bc
       -0.055952154 -0.062509894 -0.046497762 -0.02602131
000210 b9 18 53 3d 4e b6 ca 3d 0f 69 46 3e 86 a6 b1 3c
       0.05153725 0.09898053 0.19376014 0.02168585
000220 07 f5 93 3e 1d 21 5e 3d a1 86 da 3d 0b e6 1f 3e
       0.2889788 0.054230798 0.1067021 0.15615098
000230 4a 97 74 3e 84 de a2 be d9 8c 7b be 77 d0 cc 3d
       0.23885837 -0.3181039 -0.24565448 0.10000699
000240 26 bc 0f 3e a5 f5 35 3e 75 46 41 bd b8 36 15 3e
       0.14036617 0.17769487 -0.047186334 0.14571655
000250 7b b5 24 be e3 4d 9a 3d ab e9 b9 bd 9d 34 99 bd
       -0.16084854 0.07534387 -0.09077772 -0.07480738
000260 e8 4c 9c 3b 80 3f 32 3b 6b 9d 9f 3d 2e c4 b8 3e
       0.00476991 0.0027198493 0.07793697 0.36087173
000270 fb 85 12 be 0a 50 2a bc 1b ce 58 3e f2 f1 22 bd
       -0.14308922 -0.010395059 0.21172373 -0.03978152
000280 5e 32 7f bd 6f 27 c5 bd 8a 51 19 bd df 51 22 be
       -0.062303893 -0.09626662 -0.037431277 -0.15851544
000290 15 84 71 bc e7 ff 38 3e 26 ab da 3d ac ed fc bd
       -0.0147409635 0.18066369 0.10677175 -0.1235002
0002a0 2c 0e 3e 3e 98 c5 c2 3d 36 b1 20 ba 06 3b 77 be
       0.18560094 0.09510344 -0.0006129922 -0.2414361
0002b0 94 ee af 3e d1 35 50 bc 1d 08 4c 3d c6 29 8a bd
       0.34361708 -0.012708143 0.049812425 -0.06746249
0002c0 5d 5c 31 3e ee 21 3c bd fe 69 d2 3d 6f bd a1 3d
       0.1732039 -0.045930795 0.10274123 0.0789746
0002d0 18 59 67 be ea 50 c9 3c b7 1d 33 3e a5 56 9c 3d
       -0.2259258 0.024574716 0.17491804 0.07633714
0002e0 db 51 25 3c 86 01 7e 3e f8 73 84 be a4 a2 32 be
       0.010090317 0.24805269 -0.25869727 -0.17444855
0002f0 3e 4f 30 3e e1 53 75 3e 37 45 cb 3d d1 b3 18 3e
       0.17217728 0.23957779 0.09925311 0.14912345
000300 23 27 9f bd 1b e0 a8 3e 9e 2e 64 3e 50 ed 50 3d
       -0.077711366 0.3298348 0.22283408 0.05100757
000310 62 5e 64 3e dd 2d a4 bb cd bb 15 3c c6 8f 7c 3e
       0.22301629 -0.00501035 0.0091390135 0.2466422
000320 b4 ed 95 3d 1f b0 c5 3d 04 a4 a4 3d c6 c1 2c 3e
       0.07320729 0.09652733 0.08039096 0.16870794
000330 99 6e 8c 3d 80 20 62 3d d5 c4 d4 3a ee ef 85 bb
       0.06857032 0.055206776 0.0016232977 -0.0040874397
000340 dd 2d a7 3c b8 61 95 3d da d8 cf 3d 99 0f 2e 3e
       0.020407612 0.07294029 0.10148783 0.16998138
000350 52 90 42 be 8b 31 73 bd e2 4c 06 3d f2 b7 19 bd
       -0.19000366 -0.05937342 0.032788165 -0.03752894
000360 e6 e7 d3 3e 3e 75 41 3e 28 92 3c bd d5 2f 6a 3e
       0.41387862 0.1889238 -0.046037823 0.22869809
000370 0d 7c 54 bd 90 90 74 3d d5 25 01 be f0 9d b3 3d
       -0.051876117 0.059708178 -0.12612088 0.087703586
000380 ac 75 81 be 9f c5 20 be fb 41 2a 3d bc 12 ad bb
       -0.2528509 -0.15700386 0.04156683 -0.0052817743
000390 1b a5 91 be f7 09 97 bd ef 62 b1 be 15 18 69 3d
       -0.28446278 -0.073749475 -0.34645793 0.056907732
0003a0 76 5b 71 3d 7a e9 12 be de 72 0d bd 51 50 d9 bd
       0.058925115 -0.14346877 -0.034533374 -0.10611022
0003b0 67 2d 9b 3d 20 6f 20 bf 81 08 bb 3d c8 0e 91 3e
       0.07577019 -0.62669563 0.09132481 0.2833159
0003c0 6d 5d f6 3c c3 34 1a bd 6b 91 7b be 90 13 96 bd
       0.030073846 -0.037647974 -0.24567191 -0.0732795
0003d0 cc da e0 bc e1 34 21 be c6 b6 7a bb e3 cd 83 3e
       -0.02744808 -0.15742828 -0.0038255914 0.25743017
0003e0 9e 87 7c bd d5 b1 97 bd 1c 66 a4 3c 8a 3b 1d 3e
       -0.061652772 -0.07406966 0.02006822 0.15354744
0003f0 c8 45 69 3e 0a 41 ca 3c 75 e6 48 3c 14 eb 62 be
       0.22780526 0.024689216 0.0122619765 -0.22159988

fc2.bias f4 [84]
000000 10 f3 ec bb 2f b6 24 3e 5b 09 3f bd a2 d0 88 3d
       -0.0072311237 0.16085123 -0.04663978 0.066804186
000010 92 18 c5 3d 49 71 75 be d7 e1 bc 3a ca b3 a7 bc
       0.09623827 -0.23968996 0.0014410567 -0.020471472
000020 f8 6a bc 3c 37 5c 39 3d 94 57 6d be c5 de d2 3c
       0.023000225 0.04525396 -0.2317794 0.02574099
000030 1b 88 87 3b 49 6d 9f bd cf 24 23 be 90 a3 51 3d
       0.004136098 -0.07784516 -0.1593201 0.051181376
000040 05 5b 4b 3e c7 a1 99 3c 98 d5 dc bd af 39 6a 3e
       0.1985894 0.0187539 -0.10782927 0.22873567
000050 5e a7 5b bd 01 ae 38 be 7e a6 b0 bd cc 85 5b bc
       -0.05362641 -0.18035127 -0.08625506 -0.013398599
000060 b2 8f 31 be be 19 51 3e a5 39 cb 3d 82 da d8 bd
       -0.17339972 0.20419976 0.09923104 -0.10588552
000070 7c 31 b4 bd aa bf e6 bc fa 2b 10 be 12 d2 a6 3d
       -0.08798501 -0.028167564 -0.14079276 0.081455365
000080 6e c0 af 3d 60 1d 00 bd c8 32 d0 3d f6 65 1d be
       0.08581625 -0.031278014 0.10165936 -0.15370926
000090 3a f8 b9 3d f5 09 72 be 0c d4 14 be 05 dd 10 bd
       0.090805486 -0.23636611 -0.14534014 -0.03536703
0000a0 bb 53 cb 3c b2 ac 41 be 25 82 b7 3d 71 9c 3a bd
       0.0248202 -0.18913534 0.0896037 -0.04555935
0000b0 e1 13 47 be ac d6 b6 bd b9 a0 4c bd 49 a5 ad bd
       -0.19441177 -0.08927664 -0.049957965 -0.08478791
0000c0 e7 c3 7a bd 46 c0 87 3d 32 88 09 3d d3 fd e2 bd
       -0.061221983 0.0662847 0.03357715 -0.110835694
0000d0 ab 64 7c 3d ef 34 05 3e 37 8e b7 bd a3 c9 db 3d
       0.061619442 0.13008474 -0.08962672 0.107318185
0000e0 8d c8 91 3d 2b cb 75 3e d6 34 28 3e 62 09 98 3c
       0.0711833 0.24003284 0.16426405 0.018559162
0000f0 80 77 77 bd 26 c8 3c bd aa 17 3c 3e 3f 6e 35 be
       -0.0604167 -0.046089314 0.18368402 -0.17717837
000100 cc 29 61 bc 69 92 d6 3d 87 2f 4a be 4e ec 5f bd
       -0.013742875 0.10477144 -0.19744693 -0.054668717
000110 26 09 70 b9 a2 56 8c bd 7e 68 0f be da 45 c9 bd
       -0.00022891592 -0.068524614 -0.14004704 -0.09827776
000120 91 fe d0 bc a1 6b 2b bd b5 a6 ac 3d 5b d0 73 bd
       -0.025512012 -0.04185069 0.08430234 -0.059524875
000130 39 d6 33 be 82 4c b8 3c 8b 8f 11 be be 46 e8 3c
       -0.17562188 0.02249742 -0.14214914 0.028354045
000140 6b 39 8b bd c9 36 29 3d 47 8f 3f be 97 cb bc bd
       -0.06798061 0.041312013 -0.18707 -0.09218519

fc3.weight f4 [10, 84]
000000 5a e0 a7 be 48 44 39 be cf 15 fc 3d d0 2b b5 be
       -0.32788354 -0.18092453 0.12308847 -0.3538499
000010 1a 30 b9 be 1b 92 90 be 55 31 47 3e 13 22 0a 3e
       -0.3616951 -0.2823647 0.19452412 0.13489561
000020 b3 a4 9e be 5f 24 0f 3e a4 06 3e be f9 04 c4 bd
       -0.3098503 0.13978718 -0.1855722 -0.09571261
000030 74 88 e9 bc 86 68 57 bc 2c ce 05 bc 0b eb 47 3d
       -0.028507449 -0.013147479 -0.008166831 0.04880814
000040 09 30 5c 3e 68 e4 0a bf 79 cb 16 bf 93 b9 0e bf
       0.21502699 -0.5425477 -0.58904225 -0.55751914
000050 cf 5a 0f bd 8e 24 0d 3e b0 ae a1 3c 90 83 15 be
       -0.03499871 0.13783476 0.019736618 -0.14600968
000060 e3 e1 e4 be 35 f9 13 bf 3e 89 e2 3d a8 42 1d 3d
       -0.44703588 -0.57802135 0.11061333 0.038393646
000070 1c 07 8b 3c 6b 20 a0 be fd 45 2c 3e ee 3c e3 be
       0.016971163 -0.31274733 0.16823573 -0.44382423
000080 e4 c9 8e 3c 82 74 a7 3c 47 e9 e2 be 84 97 f2 bd
       0.017430253 0.020441297 -0.443186 -0.118453056
000090 2a 38 16 3e 14 88 7c be 0b 5f 49 bd 4a b2 02 bf
       0.14669862 -0.24661285 -0.049162906 -0.510533
0000a0 fa 28 47 3e cb 89 64 3e 8b c7 5d bc d1 10 32 3e
       0.19449225 0.22318189 -0.013536344 0.17389227
0000b0 8f 47 c0 3d 7d 89 8a bc 50 42 5d bd d6 26 39 bd
       0.09388649 -0.016911263 -0.05401832 -0.045203052
0000c0 86 af fa 3d 49 20 85 bd ab cf 1b be 6c 66 bf be
       0.1224051 -0.065002985 -0.15215938 -0.3738283
0000d0 7e d5 37 bc 14 04 ce 3d 2b 2d ba be f9 2a 8b be
       -0.011220334 0.100593716 -0.36362585 -0.27181223
0000e0 0e bc 40 be e5 ef b3 bd aa c5 0a be dc 48 af bc
       -0.18821737 -0.087859906 -0.13551965 -0.021397047
0000f0 4c 02 41 bd 5e b5 2a bb 37 4e b5 be 2b b1 a8 3d
       -0.04712133 -0.0026048045 -0.35411236 0.08236917
000100 20 5f 9d 3d 77 a1 c5 be 51 0c 0c bf 41 bb b9 be
       0.07684159 -0.3859975 -0.54706293 -0.36275676
000110 21 ae 50 3d 8f e7 90 bd f8 48 e2 be ef d1 d4 3d
       0.050947312 -0.07075416 -0.44196296 0.10391604
000120 97 a4 ee bc 2e e0 bb be ff db 8b 3d 4d 6e 33 bd
       -0.029131217 -0.36694473 0.0682907 -0.043806363
000130 84 fc b2 be bb 5c 99 be ed 70 1e bf fb 62 01 be
       -0.3495828 -0.2995356 -0.6189106 -0.12635414
000140 b4 94 42 be e2 4d 04 3e b5 4e c2 be 0b 1d f1 bb
       -0.19002038 0.12920335 -0.37950674 -0.0073581985
000150 0d bc d9 be 55 62 01 3e 15 13 18 be 7b 4c cc 3d
       -0.42526284 0.12635167 -0.14851029 0.09975525
000160 92 c2 ab 3d d9 e6 ae be 58 12 fd be 8b 7a 8d 3c
       0.08386721 -0.34160498 -0.49428058 0.017270347
000170 09 32 3c be 11 da 0a bf 08 f5 9e bd 28 57 e7 bc
       -0.18378462 -0.5423899 -0.0776158 -0.028239802
000180 8d 2f 56 bd b3 f9 31 3b c1 27 ad bd dd a8 c4 be
       -0.05229144 0.002715689 -0.08454848 -0.38410082
000190 46 b0 33 3d 42 9b 3a 3e c9 c1 4f 3d cb b3 b0 bc
       0.04386928 0.18223289 0.050721917 -0.021570107
0001a0 d4 cf fd 3d 7e ca 10 be 24 d2 c3 3d 53 30 e4 3d
       0.12393156 -0.14139745 0.095615655 0.111420296
0001b0 b8 20 20 bd 82 25 c9 3d dd 73 94 be 31 18 a3 bd
       -0.039093703 0.09821607 -0.28994647 -0.079635985
0001c0 25 c3 97 3d 3d 24 96 be 01 fe a1 3d de f2 54 3d
       0.07410268 -0.29324523 0.079097755 0.05198943
0001d0 6e 59 3f be f6 de 50 3e 3c 29 46 be 0b 69 e8 be
       -0.18686458 0.20397553 -0.19351667 -0.4539264
0001e0 e3 f9 85 be b2 56 2d be f5 08 d9 bd b4 6f 9e bd
       -0.2616721 -0.16927603 -0.105974115 -0.077361494
0001f0 1e d2 59 3d 99 4c 47 3e ad 03 9d 3c 56 9a b1 be
       0.0531789 0.19462813 0.019166792 -0.3468806
000200 00 51 04 bc d9 c3 c1 be 9f 9d 02 bf 4b 12 67 bc
       -0.0080759525 -0.37844732 -0.5102176 -0.0141034825
000210 f5 d1 8f be 82 e0 bc be 80 29 63 be 45 37 d7 bc
       -0.28089872 -0.36890036 -0.221838 -0.026271472
000220 28 02 ff 3a c2 d7 f3 3c 06 de fc 3d 1d fa cd bd
       0.0019455599 0.029765967 0.12347035 -0.10057471
000230 9a 9e c1 bd a6 66 fb 3d 1c ec a8 be ac c5 f0 be
       -0.09454079 0.12275438 -0.32992637 -0.47025812
000240 46 cc 47 3e 90 6c 6d 3d 9d 44 09 be bb 5b d0 bd
       0.19511518 0.05796486 -0.1340508 -0.10173746
000250 32 3f 8e be 53 d6 80 3d 0d 35 c1 bd 5f b5 cc bd
       -0.2778259 0.06290879 -0.09433947 -0.09995531
000260 c3 3b 81 be a0 4b 66 be 8d 48 0d be c1 5d 43 be
       -0.25240907 -0.22489786 -0.13797207 -0.19078733
000270 31 31 1c 3e 68 a3 55 be 91 c2 a8 be 09 44 31 be
       0.1525314 -0.20863116 -0.32960942 -0.1731111
000280 e0 95 5c be ea ee ac be 6c 89 0c be 48 84 06 3e
       -0.21541548 -0.33776027 -0.13724297 0.13136399
000290 71 e0 d7 3c f0 37 8b bd f6 0a 35 3d 71 91 63 3e
       0.02635214 -0.067977786 0.044199906 0.2222345
0002a0 32 11 9b 3e eb ed 09 bf d7 04 0c be ca 64 a4 be
       0.30286556 -0.5387866 -0.13673721 -0.32108146
0002b0 a7 2d 89 3e ae 5b 31 bd f2 cf d2 be 40 52 38 be
       0.26792642 -0.043300323 -0.41174275 -0.18000126
0002c0 c9 27 96 bd a7 90 65 bd 24 10 c4 be 4a 3d 68 bd
       -0.07331807 -0.056046154 -0.38293564 -0.056699075
0002d0 f2 82 81 bd 90 b4 53 3c d9 07 1e be 4c d9 20 3e
       -0.06323804 0.012921467 -0.15432681 0.15707892
0002e0 35 49 f6 3c 27 73 a8 be 52 b6 0d bf ff a3 fd 3d
       0.030064205 -0.32900354 -0.55356324 0.123847954
0002f0 8d 37 ad 3d 91 ac 3a be 88 d1 e3 bb ee 12 07 3e
       0.08457861 -0.18229891 -0.0069524683 0.13190815
000300 86 a7 13 3e cb d1 3a be a5 9c 4b 3d fa 23 b5 bd
       0.14419374 -0.18244092 0.049709935 -0.088447526
000310 ab 48 f9 3d 48 cc 88 bd 5d 4b 08 be fa 97 cc 3d
       0.121720634 -0.066795886 -0.13309999 0.09989925
000320 86 f4 0a 3e 54 d0 38 3c e8 c6 bf be e8 71 69 be
       0.13569841 0.011280138 -0.3745644 -0.22797358
000330 45 c6 07 bd e5 e8 81 bb 73 5d 27 bd 5c 9e 17 3d
       -0.03314807 -0.003964531 -0.040860604 0.037016258
000340 fc 68 23 3e 49 99 73 be 19 b8 b4 bd be 3d 3c be
       0.15958017 -0.23788942 -0.08824176 -0.18382928
000350 f0 bf 37 3e 29 20 5a 3e 50 ac 02 be 5e d5 cf bd
       0.17944312 0.2130133 -0.12761045 -0.101481184
000360 fc 72 32 3e 0d f7 09 3d 39 b1 02 bd 8f 65 c1 bc
       0.17426676 0.03368287 -0.031907294 -0.023607997
000370 76 15 c9 be 1a d2 a3 bd 8c 6c 3b bd 7b b2 5c be
       -0.39274186 -0.07999058 -0.045757815 -0.2155246
000380 9f 7b 57 be cb 3a 17 3e 4d 08 81 be 7b c4 d5 3d
       -0.21043251 0.14768521 -0.25201645 0.10437866
000390 09 0e 91 be de ee 1e 3d 58 0b 65 3e 5c e7 c3 be
       -0.2833102 0.03880202 0.22367609 -0.3826245
0003a0 dd ee 04 bf 0a 82 a8 be ab 6c a3 bd b3 d7 a6 be
       -0.51926976 -0.32911712 -0.07979711 -0.3258644
0003b0 df c4 8e 3d 58 0d ce be 11 86 f2 bd 38 51 3e be
       0.06971144 -0.40244555 -0.118419774 -0.1858567
0003c0 b6 76 3d 3e 58 76 03 bf 82 a2 58 3d 1e 91 02 3d
       0.18502316 -0.51352453 0.052889355 0.031876676
0003d0 42 47 88 bc d8 02 8b be 1b 5b 42 3d 59 ed e5 3b
       -0.01663554 -0.27150607 0.047450166 0.0070168194
0003e0 b2 6b 19 be 55 e1 ea 3d 2f e4 18 be 40 f7 1f be
       -0.14982489 0.1146876 -0.14930795 -0.15621662
0003f0 d4 99 54 be 72 af b4 be 2b 72 9e be 54 6d b9 be
       -0.20761806 -0.35290104 -0.30946478 -0.36216223

fc3.bias f4 [10]
000000 b3 e1 fa bd 99 f0 81 bd 30 18 24 bd 03 e8 ae 3d
       -0.1225008 -0.063447185 -0.04006213 0.085403465
000010 3d bc 28 3d d2 b5 54 bd 23 07 4c be 7d 3c 02 ba
       0.041195143 -0.05193121 -0.19924597 -0.000496812
000020 21 44 bf 3d 1f 46 d8 bd
       0.093391664 -0.105602495
